upscalers/wthrice/checkpoints/default-checkpoint.pt (torch, 12760 bytes, 6 tensors)

cl1.weight f4 [8, 3, 9, 9]
000000 fe 6f 28 3c 57 37 57 3b 00 b6 53 bd 9f 92 b6 3b
       0.010280607 0.0032839382 -0.05168724 0.005571678
000010 26 1a 83 3c 6b de 0d bc e0 43 4a 3c cb 29 16 3d
       0.01600368 -0.008658986 0.012345284 0.03666095
000020 5f 72 3c bd 69 79 f5 3b b5 d2 3c 3d d9 7a 91 bc
       -0.04600751 0.00749128 0.046099383 -0.017758774
000030 0b d5 86 3c 1c 16 b4 3d 1c 33 37 3d 60 99 e3 bc
       0.016459009 0.087932795 0.044726476 -0.027783096
000040 a9 ac 83 bc a3 09 3a bb 68 3c cc 3c 66 f7 df 3c
       -0.016073542 -0.0028387092 0.024931148 0.027339648
000050 e8 52 4b 3d c7 70 f3 3d 7a d0 f8 bd c2 28 82 be
       0.049639612 0.11886745 -0.12149139 -0.2542172
000060 21 ea a1 3c 7c 4b 71 bd e4 53 87 3c d3 b6 0a bd
       0.019764962 -0.058909878 0.016519494 -0.03386576
000070 c1 9d 4d bd 59 12 cc 3d e6 de 90 3d 8b 78 2c be
       -0.050199274 0.09964437 0.070737645 -0.16842858
000080 1f 73 79 be 2c 31 50 bd e3 71 81 bc 9c 1d 3b bd
       -0.24360321 -0.050828144 -0.015801376 -0.045682535
000090 48 e7 bd 3d 85 15 c2 bb 2f 87 33 3d 58 40 7e 3d
       0.09272629 -0.0059229755 0.043830093 0.06207308
0000a0 a2 93 ba 3d 56 bf 5b 3d e1 fc ac 3d 0a cc 4c 3c
       0.0911019 0.05364927 0.0844667 0.012499819
0000b0 5e 0f c8 3c 14 9b 8d 3b 97 bc 1b bc b2 43 a1 bd
       0.02442139 0.0043214653 -0.009505413 -0.0787424
0000c0 da 90 23 bd d7 be b0 3d 17 ce 4c 3e 05 9a be 3d
       -0.039933063 0.0863015 0.20000492 0.09306721
0000d0 41 dd 99 3d b7 53 18 3d 33 98 7b 3c 55 ca 47 bd
       0.07512904 0.03718921 0.015356111 -0.048776943
0000e0 ab 14 c9 bc 5f a8 95 3d e1 56 2d bc 99 08 e4 ba
       -0.024545988 0.07307505 -0.010579796 -0.0017397582
0000f0 18 48 26 3c 5e 5f 10 3d 9f b6 4c bd 9e a9 c6 bb
       0.010149024 0.0352472 -0.04997885 -0.0060627004
000100 65 4e ac 3b f8 14 a2 3c a2 0d 05 bd 34 88 f7 bc
       0.005258369 0.01978539 -0.032483704 -0.030216314
000110 b2 af f0 bc 62 95 6d 3a 05 e5 8a 3c 9d 9e 12 bd
       -0.029380653 0.00090630923 0.016954908 -0.035795797
000120 0d 73 47 3b ef 07 ff 3c bb ad 2b bd c7 84 46 3d
       0.0030433566 0.031131713 -0.04191373 0.04846647
000130 98 c1 da bc 1f 04 d7 bb b8 ee e5 3c 5c 5a 5b bd
       -0.02670364 -0.0065617706 0.028067932 -0.05355297
000140 c7 a8 2a 3d 95 bf 85 3c 84 b2 5a 3d d4 75 b8 bc
       0.041664865 0.016326705 0.053392902 -0.022517122
000150 1a 54 02 bc b9 31 07 bc bc 55 c4 bc 58 c4 8e 3c
       -0.007954622 -0.008251601 -0.023966663 0.017427608
000160 93 af 9b bc 75 ec b1 3c 26 70 c3 bc 3f c2 1a 3c
       -0.019004619 0.021719197 -0.023857187 0.009445726
000170 b1 5a 42 bd f8 fd 08 bd 3a ae 14 3d 53 42 83 3c
       -0.04744977 -0.03344533 0.036298968 0.016022837
000180 be c9 3e bc 0a f9 ae 3b 13 46 f9 bb 13 8f 95 bc
       -0.011644779 0.0053397464 -0.0076072305 -0.0182567
000190 61 dc 99 bc 22 61 cd 3c 14 64 37 3e 01 95 13 3e
       -0.018781843 0.02507073 0.1790927 0.14412309
0001a0 98 69 47 3d 92 cc 1f 3d 6a 5b c0 3c 73 a5 a5 bc
       0.048684686 0.039013453 0.02348109 -0.020220494
0001b0 00 94 5a 3d 76 5d 71 bb 59 4c 18 3e 69 7c 9f 3e
       0.0533638 -0.0036829389 0.14872874 0.31149605
0001c0 84 23 66 3e 6f 7d dd 3d 69 df 1b 3e 82 36 b6 bc
       0.22474486 0.1081494 0.15221943 -0.022242788
0001d0 77 1c 90 3d ab 9e da bc aa e1 60 bd 8b 05 cf 3c
       0.07036679 -0.026686987 -0.05490271 0.025271198
0001e0 1d 04 14 3e fc 13 27 3e a9 b1 aa 3d 53 9f 79 bd
       0.14454694 0.16316217 0.08334667 -0.06094296
0001f0 45 30 d6 bd 77 00 05 3d 3f 79 16 bd 4b f8 2c ba
       -0.104584254 0.032471146 -0.036736723 -0.0006598278
000200 ca e0 d7 3b d7 53 17 bd 91 cf c5 3c cc a8 6c bd
       0.0065880762 -0.03694519 0.024146827 -0.057778165
000210 3b 65 31 be a9 a0 de bd bb 68 12 bd b9 a4 f3 3c
       -0.17323773 -0.10870487 -0.03574441 0.029741632
000220 7c e2 d6 bc a8 27 5f 3b 3c 81 58 3d 0a f6 0b 3e
       -0.026231043 0.0034050737 0.052857623 0.13668075
000230 32 fd 78 bd fb e1 7d bd c0 58 a7 bc 8e 0e bc 3d
       -0.06078834 -0.06198309 -0.020428061 0.091824636
000240 f2 dd eb 3c 9e 7b 8b bc 48 5f ec bc 76 ec 38 3c
       0.028792355 -0.017026719 -0.028854027 0.011286845
000250 db 88 ec 3b 47 ce 44 bd 69 d0 c7 3c 1a 07 9e 3c
       0.007218463 -0.048048284 0.02439137 0.019290496
000260 49 45 e2 3b 27 94 d7 bc 49 e3 ae bb da 4c 22 3d
       0.006905232 -0.026315762 -0.005337153 0.039624073
000270 20 4a 86 bd 94 21 81 3d c8 5d 17 bc a3 23 0d bc
       -0.06557107 0.06305233 -0.009238668 -0.0086144535
000280 65 65 0a 3d 0d fa d7 bc 5d 12 8f bd 93 e1 57 3b
       0.033788104 -0.02636435 -0.069859244 0.003294085
000290 2a a9 6f 3d 1c a5 4f 3d 4b 9d bf 3b 20 57 8d bd
       0.058510937 0.05069457 0.005847608 -0.069013834
0002a0 cc 1e e1 3c 4b 09 7a 3c d1 29 48 bc c0 d5 4d 3d
       0.027480505 0.015261005 -0.012217001 0.050252676
0002b0 aa 72 7c 3d 9a cf 98 bc 2d 20 1b bd 5a b0 32 3b
       0.06163279 -0.01865368 -0.037872482 0.0027265758
0002c0 db 89 16 3d 5f a3 17 3c 7a 54 99 bd b0 0b 82 3d
       0.036752563 0.009255259 -0.07486816 0.063498855
0002d0 b8 0e a5 3b f8 b7 4a bc 7f 7f 76 3d 7a 93 99 3d
       0.005037155 -0.012372963 0.060180184 0.07498832
0002e0 20 5f af 3d 0c a0 78 3d 88 e0 0a 3e 75 fa 6f bc
       0.085630655 0.060699508 0.13562214 -0.014647116
0002f0 4c e2 47 3d 29 7e 5b b9 9e 31 94 bd 99 52 af bc
       0.048799798 -0.00020932466 -0.07236026 -0.02140169
000300 17 81 12 3c 31 45 88 3d 92 a0 d2 3d 7c 34 55 3e
       0.00894191 0.06653822 0.102845326 0.20820802
000310 76 c6 ce 3b 83 16 d5 3c 16 a7 c0 3c 34 8b 88 3c
       0.0063102795 0.026011711 0.023517173 0.01666794
000320 a1 b3 82 3c 06 4d 0c be 5d 59 44 3d 9e 77 23 3e
       0.015954794 -0.13701257 0.047936786 0.15963599
000330 b3 2c 18 3e b6 ee 02 bd ce 78 8a bb af a7 16 bd
       0.14860801 -0.031965934 -0.004225827 -0.03678101
000340 b2 ba bd 3d ef 12 2d bd 86 b9 c8 bd db b0 0e bd
       0.09264125 -0.042254385 -0.09801011 -0.03483663
000350 e8 e0 df 3d 90 98 31 3e 1a 93 5a 3d dc 7c 9a bc
       0.10931569 0.17343354 0.053362943 -0.018858366
000360 95 b7 a4 3b 94 0a 6c 3c a0 28 37 3d 25 dd ee bd
       0.0050267675 0.014406819 0.044716477 -0.11663274
000370 5e 12 fb bc 12 fd 01 bc 30 b2 e8 3c 80 08 ca 3a
       -0.030648407 -0.007933872 0.028405279 0.001541391
000380 41 2e 4d bd 49 0f 26 3b 58 56 cd bc ac 34 52 3c
       -0.05009294 0.00253387 -0.025065586 0.012829941
000390 fc 63 bc 3c 69 f1 93 3c 20 c4 cd 3b 2f 50 05 3d
       0.022996895 0.01805945 0.0062794834 0.032547172
0003a0 5b 63 2b bd 2b 1a 07 bb f7 c9 e3 bc 0c 8b 73 3d
       -0.0418428 -0.0020614963 -0.027806265 0.059458777
0003b0 b7 df 1b bd 62 b1 a5 3c d9 35 00 bc 56 0b 29 3b
       -0.038055148 0.020226184 -0.007825338 0.002579411
0003c0 6f f3 fb bb 7a 8b 97 3b 8c 24 8b bc 7a 71 54 3b
       -0.0076889317 0.004624781 -0.0169852 0.003241627
0003d0 ff bb 43 3d bc bc 80 3d d5 ee 7d bd ed 57 a2 3c
       0.04778671 0.06285998 -0.061995346 0.019817317
0003e0 ea 09 18 bd 01 41 59 3b bf ac 1f bd f2 4b 0a 3e
       -0.03711883 0.0033150318 -0.038983103 0.13505533
0003f0 6a 33 68 bd 18 14 d4 bd 6c 9a 95 bd ed 7a 31 bd
       -0.056689657 -0.10355395 -0.07304844 -0.04333012

cl1.bias f4 [8]
000000 18 29 28 3d 79 88 96 bd 6a 70 4e bd 12 07 af bd
       0.041054815 -0.07350249 -0.050400175 -0.085462704
000010 a3 d6 ba be a0 a9 e1 3d 65 42 95 bd 41 88 76 3e
       -0.3649188 0.110186815 -0.072880544 0.24075414

cl2.weight f4 [7, 8, 1, 1]
000000 40 0d ec bd 2d 4c 69 be bd 56 ee 3e e3 47 f9 3e
       -0.11525965 -0.22782965 0.4655055 0.48687658
000010 94 d5 ff bb 16 d8 b7 3c 9e af f8 3e 78 43 71 3c
       -0.007807443 0.022441905 0.48571485 0.014725558
000020 eb 68 f5 bd 32 78 c4 bd 67 0a 0a 3e ad b9 be bd
       -0.11982902 -0.09593238 0.1348053 -0.093127586
000030 51 3d c0 be 40 a1 96 3e ed d0 bf 3e 7e 7d a8 3e
       -0.3754678 0.294199 0.37464085 0.32908243
000040 96 cd 02 bd 92 f2 34 bc 2d 37 1f 3d 94 52 e4 3d
       -0.031934343 -0.011044161 0.03887098 0.11148563
000050 c8 0e 33 be d6 79 87 3e 18 00 6a bd d3 79 4f 3d
       -0.17486107 0.2646014 -0.057128996 0.05065329
000060 79 d5 99 3e 3b 11 44 be 9c 21 8c 3e 0a 64 c7 bd
       0.3004568 -0.19147198 0.27369392 -0.09735878
000070 de 5a c9 be e7 86 9a be 0c 0f f9 3e 80 17 de 3d
       -0.3932714 -0.30181047 0.48644292 0.10844326
000080 e4 5d 97 3e fc 3d 82 3d eb ca 43 bd 1c 55 37 3e
       0.2956382 0.06359479 -0.04780094 0.1790356
000090 3e 9d 5c 3e d3 a6 af bd 1e bd 2b be c3 a7 30 3e
       0.21544358 -0.08576741 -0.16771361 0.17251496
0000a0 d6 c1 5e bc 34 61 21 3f cb 3e bb bd 37 7e 80 3e
       -0.013596019 0.63038945 -0.09142836 0.25096294
0000b0 de dc be be 99 e1 3d bd d3 90 82 be 97 ec 16 bc
       -0.37277883 -0.046357725 -0.25501117 -0.009211681
0000c0 50 2b c4 3e 18 40 e0 bd 7d f3 30 3e b6 cd ba 3d
       0.38314295 -0.10949725 0.17280383 0.091212675
0000d0 8f 04 b3 bd 16 3b 44 3e ff 30 59 3e d6 09 a6 be
       -0.08741104 0.19163164 0.21210097 -0.3242938

cl2.bias f4 [7]
000000 88 e1 5c 3e 2f 8f 88 3d c1 da 0d bf f5 8e 99 3e
       0.21570408 0.06667935 -0.55411917 0.2999188
000010 0a d8 dd bc 87 f3 88 3d fc 27 4d 3e
       -0.027080555 0.06687074 0.20034784

cl3.weight f4 [3, 7, 5, 5]
000000 13 c1 1f 3c 64 42 88 bc d2 d5 df bc 3c d7 b2 bc
       0.009750622 -0.01663322 -0.027323637 -0.021831147
000010 ba 54 80 bc 43 7f 02 bd 9a 25 1b bc 72 69 01 bc
       -0.0156654 -0.031859647 -0.009469414 -0.007898675
000020 f6 97 4b 3d 94 d3 b1 bc 82 08 ba 3d cf ec a0 bc
       0.049705468 -0.021707334 0.09083654 -0.01964417
000030 c2 1b bd bc b6 bb 2f 3e a2 53 8d 3c a6 ae b5 bc
       -0.023084525 0.1716145 0.017251793 -0.022178005
000040 03 81 c5 bc ea d4 02 be 78 21 5c bc e2 22 9b bd
       -0.02410937 -0.12776533 -0.013435714 -0.07575013
000050 6c 47 64 3c 1a 06 25 3e 98 18 94 bd c9 9a 08 3c
       0.013933044 0.16115609 -0.072312534 0.008337685
000060 ba 08 19 bc 8c 4d 62 bd 7b af 3c 3d ae 96 11 3d
       -0.0093404595 -0.055249736 0.04606579 0.03554409
000070 95 ca 52 3d fb ca e0 bc c2 a4 d3 3c ce c9 39 3e
       0.05146273 -0.027440539 0.025835399 0.18143389
000080 e6 0a 45 3e cb db 60 3e 61 18 a8 3d 30 3e 35 bd
       0.19242439 0.21958844 0.08207775 -0.04424876
000090 07 fb 9d 3d 42 7b 16 3e 21 41 2c bd 4d 55 66 bc
       0.07713895 0.14695457 -0.0420543 -0.014058423
0000a0 66 2d 93 bd 67 59 fe 3d 23 72 a9 bc 33 dc d2 bd
       -0.071863934 0.12419396 -0.020684307 -0.10295906
0000b0 f2 e5 d4 bd 0b a7 02 be bb 42 08 3e 87 7f db 3d
       -0.10395421 -0.12759034 0.13306706 0.10717683
0000c0 3d bb 86 bc 58 02 f3 3c 74 5c 91 bd 8f af 3b 3e
       -0.016446704 0.029664204 -0.07097712 0.18328689
0000d0 b6 2b b0 3d bb cb 1a bd b7 48 dc 3d 54 2e a3 bd
       0.08602087 -0.03779195 0.10756057 -0.07967821
0000e0 5d c6 4f 3e 8f 61 a2 be 47 99 0c bf 4b 7a 60 3e
       0.20290513 -0.31715056 -0.5492138 0.21921651
0000f0 e0 38 11 bd de 55 fd 3d cd d7 19 bd 9a ea 9d 3e
       -0.03545463 0.123698935 -0.03755932 0.3084305
000100 3f ff 1f 3d 0f 34 85 bc 0b 33 6c bd 85 f2 a6 3a
       0.03906178 -0.016260175 -0.057665866 0.0012737071
000110 e5 72 cd 3d d1 74 09 be e6 8f 42 3d cc 3b 83 39
       0.1003168 -0.13423468 0.047500513 0.0002503082
000120 b3 07 9a 3b 73 be be bd d3 77 2b 3d fe 7d 88 3c
       0.004700625 -0.09313669 0.04186232 0.01666164
000130 10 cb b6 bd b6 92 8b bd 1a a8 23 bc 3b fe 47 3d
       -0.0892545 -0.06815092 -0.009988809 0.048826437
000140 a7 1d d2 bb 55 18 84 bd 6a 0e 70 bd 65 e7 e7 bd
       -0.0064122262 -0.064499535 -0.058607496 -0.11323432
000150 36 43 69 bd 51 c4 1c 3d f4 7f 56 bb 6e 46 44 be
       -0.056948863 0.03827316 -0.0032730075 -0.19167492
000160 c7 d3 20 be c1 d5 0a bc 3c 4f 84 bc ba de 18 bd
       -0.15705787 -0.008473814 -0.016151063 -0.037321784
000170 89 7d fb bd c7 7c 72 3c f1 f0 09 3e 36 2d 90 bc
       -0.12279803 0.014800257 0.13470818 -0.017599683
000180 3b 98 1a 3d 86 0e b5 3c c7 2b d7 3b d8 57 3b 3d
       0.037742835 0.022101652 0.006566498 0.04573807
000190 83 87 c4 bc 35 7f 70 bd 5d f1 ff bc 12 79 d5 3c
       -0.023990398 -0.058715064 -0.03124302 0.026058707
0001a0 65 be 99 bc 1b 3c 9c 3d 03 66 5e 3d 72 e2 07 3e
       -0.018767545 0.07628652 0.054296505 0.13269976
0001b0 cc 6d 7d 3d 3a 88 ae bd 92 55 68 3d 80 d0 6b 3a
       0.06187229 -0.08522077 0.05672223 0.00089956075
0001c0 5a d3 9a 3d 6f 3d 10 3e 51 37 69 bc 8a a0 03 bd
       0.07559843 0.14085935 -0.01423438 -0.032135524
0001d0 c2 74 0c be ae 56 a3 bd 30 e5 1f 3e 24 7f 44 bd
       -0.13716415 -0.07975517 0.15614772 -0.047972813
0001e0 22 71 38 bd be 83 3d bd 96 ae bb bc fe 9a 38 3d
       -0.045029767 -0.046268217 -0.022910397 0.045069687
0001f0 24 4d 2e bc 9e 7c 86 3c 19 ab a8 bb e4 99 23 bc
       -0.010638509 0.016416844 -0.0051473496 -0.009985421
000200 d6 a5 5a 3c 9e b6 11 ba 4b e0 4d bd 56 1e 00 bd
       0.013345202 -0.0005558523 -0.05026273 -0.03127893
000210 b9 22 87 bc 32 85 f8 bc 11 33 14 bc d1 b8 9a bd
       -0.01649605 -0.03033695 -0.009045378 -0.07554782
000220 61 a4 8d 3d 7d 59 77 bc b7 b0 5e bb ba dc a0 3c
       0.069161184 -0.015097019 -0.0033979842 0.0196365
000230 99 9e 95 3c d1 12 a9 3e c3 9e 29 bd ba e6 48 bd
       0.018264102 0.33022168 -0.041411173 -0.049048163
000240 89 7d ad bb 18 c3 fd bd 9c 11 37 3d 45 f3 79 bd
       -0.005294506 -0.12390727 0.044694528 -0.061023016
000250 e6 68 7d bc e6 55 b7 3b d6 f4 84 3b 9d 26 ad 3d
       -0.015466904 0.0055949567 0.004057507 0.084546305
000260 1a f5 44 3d 57 00 26 3d 7f c6 6c bc 1f 75 10 3d
       0.04808531 0.040527668 -0.014451622 0.035267945
000270 02 78 4e 3d f6 9c 70 3d 5a 42 a9 bd 7d 24 09 3d
       0.050407417 0.05874344 -0.08264609 0.033482064
000280 7c 32 68 bd 1e cd d1 3d 55 8c d1 3d 8d 52 b5 3d
       -0.05668877 0.10244201 0.10231844 0.08853636
000290 88 1b 45 3d 15 81 dd bc cd 5d 37 be cb 1a 1e be
       0.04812196 -0.02703909 -0.17906876 -0.15439908
0002a0 90 2d 6e bc 88 98 c3 bc 51 71 a3 3d c6 86 ba bd
       -0.01453723 -0.023876444 0.07980598 -0.09107737
0002b0 86 0e 72 bd 5e 4a 00 3e d7 26 7c 3d 13 d0 a9 3c
       -0.059095882 0.12528369 0.061560478 0.0207291
0002c0 f0 29 1b bc e1 5d 92 bd 15 c9 28 bd 4f 06 a6 bc
       -0.009470448 -0.07146812 -0.04120739 -0.02026668
0002d0 13 16 94 3c 98 14 10 3d b0 a8 44 3c 70 74 10 3d
       0.018076932 0.03517589 0.012003109 0.035267293
0002e0 1c ca 19 bd 14 bc df 3d 15 62 13 3b 4c 09 27 bd
       -0.037546262 0.10924545 0.0022488881 -0.04078035
0002f0 39 5e 32 3e 62 b5 06 3c 36 a3 a1 bd e7 53 02 be
       0.17418756 0.008221956 -0.07892458 -0.12727319
000300 f6 d6 74 be e9 29 1c bd eb f3 b0 bd 90 61 47 bb
       -0.23910126 -0.038125906 -0.08640274 -0.0030423142
000310 26 c9 22 3e 7f 62 dc bd ac 97 87 3c 03 4f 4f 3b
       0.15897045 -0.10760974 0.016551815 0.0031632788
000320 72 7e ec bd e2 10 00 bd c8 97 97 bd d7 27 88 3d
       -0.11547555 -0.0312661 -0.07401997 0.06648224
000330 3f f4 a4 3d f5 80 bc bb 79 b7 84 3b 01 24 bf 3d
       0.08054399 -0.0057526776 0.004050192 0.09333039
000340 f8 ea 08 3e 26 50 03 3e 12 1f c3 bd 9d ca 7c 3c
       0.13370883 0.12823543 -0.095274106 0.015429166
000350 82 5a 62 bd 72 bd 1d be 5a 0f b7 ba 88 98 32 3c
       -0.055262096 -0.15404299 -0.0013966367 0.010900624
000360 40 1c 02 3e ee ca dd 3b b0 14 6c be b0 99 83 bd
       0.12706089 0.006768576 -0.23054767 -0.06425798
000370 5c 14 9b bd 8d f9 ad 3d f7 d4 ed 3d 8d c8 50 bd
       -0.075722426 0.08494864 0.116128854 -0.05097251
000380 1f 43 17 3d dc 2e ae bd 05 90 43 3e be 94 a2 3d
       0.036929246 -0.085050315 0.19097908 0.079385266
000390 64 12 c1 bd a6 02 ed 3d e0 94 4b bd a0 07 27 3e
       -0.09427336 0.11572771 -0.049702525 0.16311502
0003a0 e4 b3 6a be 90 5f fd be 13 98 42 3e 45 e2 0b bd
       -0.22920185 -0.4948697 0.19003324 -0.034151334
0003b0 67 7d 8d 3d 4c 59 a8 bc 43 c8 92 3e 96 cf 22 3d
       0.06908684 -0.020550393 0.28668413 0.03974875
0003c0 28 d2 7c 3b 97 f2 39 bd c3 09 a0 bc 82 a6 b0 3d
       0.0038577411 -0.045397367 -0.019535905 0.08625509
0003d0 1b 59 f1 bd c1 cb 01 3d a7 12 b2 3c 94 f1 a8 bb
       -0.11784574 0.031688455 0.02173741 -0.0051557515
0003e0 92 2a c3 bd 7f 77 3b 3d 02 9f bd 3c 3e 0c b2 bc
       -0.09529604 0.045768257 0.02314711 -0.021734353
0003f0 33 5f 7b 3d d1 7b 99 bd 4a 74 e7 bb f8 bd 73 bd
       0.061370086 -0.07494319 -0.0070634233 -0.05950734

cl3.bias f4 [3]
000000 c4 24 87 3c 01 f3 b2 bd 55 58 ea bd
       0.016497023 -0.087377556 -0.11442629
