upscalers/wthrice/checkpoints/same.pt (torch, 12650 bytes, 6 tensors)

cl1.weight f4 [8, 3, 9, 9]
0	0x3c566123	0.013084683
1	0xbc289a6f	-0.010290726
2	0xbd1dea28	-0.038553387
3	0xbc150398	-0.009095095
4	0x3c14963a	0.00906902
5	0x3b8bec17	0.0042700875
6	0xbc8bb229	-0.017052727
7	0x3d1e506c	0.038650915
8	0xbd07a02c	-0.033111736
9	0xbd1f04e7	-0.038823035
10	0x3d0db357	0.03459486
11	0xbc0d1546	-0.008611029
12	0x3c00c165	0.007858609
13	0x3dd4a5bd	0.103831746
14	0x3dae76b2	0.08518733
15	0xbcb62629	-0.022234993
16	0x3c5bc77d	0.013414261
17	0x3a9382f0	0.0011254232
18	0x3cdcf606	0.026972782
19	0x3d2c8be3	0.042125594
20	0x3d17d392	0.037067004
21	0x3ddb0dd1	0.10695995
22	0xbdf71c32	-0.12065925
23	0xbe721b5b	-0.23643248
24	0x3d02d6a8	0.031942993
25	0xbd126ccd	-0.03574829
26	0x3cce5057	0.025184793
27	0xbd05f386	-0.032702945
28	0xbd571de3	-0.052518737
29	0x3d932bb6	0.071860716
30	0x3d619172	0.055070348
31	0xbe3f6ac6	-0.18693075
32	0xbe7f6689	-0.24941458
33	0xbd813da5	-0.06310586
34	0xbcde95b2	-0.02717099
35	0xbd423bcb	-0.047420304
36	0x3d9688a0	0.07350278
37	0xbbbc40a7	-0.005745012
38	0x3ce7eefd	0.0283122
39	0x3d290f76	0.04127451
40	0x3ddb8f5a	0.107207015
41	0x3dc779b5	0.09740011
42	0x3d8ce7f7	0.06880181
43	0xbbd2aa1e	-0.006428971
44	0x3c4c4866	0.012468433
45	0xbba1beaf	-0.0049360613
46	0xbb6935a9	-0.0035584962
47	0xbdbb2d2d	-0.09139476
48	0xbd91f916	-0.071275875
49	0x3dd26f6f	0.102751605
50	0x3e7f0ce9	0.24907269
51	0x3db4421f	0.08801674
52	0x3db00820	0.085953
53	0x3d108353	0.03528149
54	0x3c87974f	0.016551642
55	0xbd3cb4a0	-0.046070695
56	0xbd25b337	-0.040454116
57	0x3ce1184e	0.02747741
58	0xbd2ced54	-0.04221852
59	0xbb0b4ebc	-0.0021256646
60	0xba255526	-0.00063069386
61	0x3d2b0629	0.04175392
62	0xbd4a7dcb	-0.04943637
63	0xbcb4a4b1	-0.022051187
64	0x3bd61adf	0.006533965
65	0x3ba70bde	0.00509785
66	0xbdab8a11	-0.083759435
67	0xbd82c7ae	-0.06385742
68	0xbcddc8a7	-0.027073218
69	0xbc2b3aa0	-0.010450989
70	0x3bbc9df3	0.0057561337
71	0xbd2adc55	-0.04171403
72	0x3b7b718b	0.0038367237
73	0x3d1c32ba	0.038134314
74	0xbcc8d077	-0.024513466
75	0x3d0c1f89	0.03420976
76	0xbd25f1b2	-0.0405137
77	0xba47d3b8	-0.0007622796
78	0x3d0d7c87	0.034542587
79	0xbd07441f	-0.03302395
80	0x3d129ffd	0.035797108
81	0x3d074994	0.033029154
82	0x3d402276	0.046907865
83	0x3be88788	0.0070962347
84	0xbc5122b2	-0.01276462
85	0x3c2338d3	0.009962278
86	0xbcfb95a8	-0.03071101
87	0xb8a4cc6b	-7.858205e-05
88	0xbc11b534	-0.0088933
89	0x3c0335ef	0.008008464
90	0xbd034760	-0.03205049
91	0xbb1fff8c	-0.0024413792
92	0xbd8b31ec	-0.06796631
93	0xbdb37dbb	-0.087642156
94	0x3d08fcf7	0.03344437
95	0xbc427513	-0.011868733
96	0xbd2da39e	-0.042392366
97	0x3cd3c3f8	0.025850281
98	0xbc925da7	-0.017866923
99	0xbc80949b	-0.01569586
100	0xbd8187c2	-0.06324722
101	0xbdb9d9d2	-0.09074749
102	0x3da5738a	0.08078678
103	0x3e12d38a	0.14338508
104	0x3c85a0d1	0.016312035
105	0xbbfe69f9	-0.007764098
106	0x3b949470	0.0045342967
107	0xbd2a0dec	-0.041517183
108	0x3d5b6102	0.05355931
109	0xbd4ee0ed	-0.050507475
110	0x3d9611af	0.07327592
111	0x3ea138d0	0.31488657
112	0x3ead062a	0.33793765
113	0x3e2d05dd	0.16896768
114	0x3e201e06	0.15636453
115	0xbcf8e59b	-0.030382922
116	0x3da64847	0.081192546
117	0x3c076cdf	0.008265703
118	0xbc8d0662	-0.017214958
119	0x3db85621	0.09000803
120	0x3e8cea55	0.2752253
121	0x3ec9ef08	0.3944018
122	0x3e78be9d	0.24291463
123	0xbbf08dd2	-0.007341125
124	0xbd805a1a	-0.062671855
125	0x3dc3cb6f	0.09560286
126	0xbd65ea23	-0.056131493
127	0xbc9dc365	-0.01925821
128	0x3c7ed803	0.015554431
129	0xb9ffdd05	-0.00048802063
130	0x3e01945c	0.12654251
131	0xbd0a5f87	-0.03378251
132	0xbe63076f	-0.22170804
133	0xbe004b11	-0.12528636
134	0xbd3798ba	-0.044823386
135	0x3d39b280	0.045336246
136	0xbd14fde0	-0.036374927
137	0x3c00a08d	0.007850778
138	0x3d8879b5	0.06663839
139	0x3e42f587	0.19038974
140	0xbd834d94	-0.06411281
141	0xbda0954e	-0.078409776
142	0xbc20aae4	-0.0098063685
143	0x3dc77590	0.0973922
144	0x3cb4f617	0.022090001
145	0xbd202119	-0.039094064
146	0xbd24a3bd	-0.040195215
147	0xbb7def40	-0.003874734
148	0x3d45e578	0.04831454
149	0xbcf04aa3	-0.029332465
150	0x3d10f026	0.035385273
151	0x3ca66aba	0.020314563
152	0xba79a393	-0.00095229706
153	0xbc87ac9e	-0.016561802
154	0xbcd1e691	-0.025622638
155	0x3d2290ec	0.03968899
156	0xbdb5134d	-0.08841572
157	0x3d95889a	0.07301445
158	0xbcb5cf11	-0.022193464
159	0xbbd41724	-0.006472485
160	0x3d2d1d24	0.04226412
161	0xbd1d805a	-0.038452484
162	0xbd70ed91	-0.05882031
163	0xbd19f8d1	-0.037590805
164	0x3d8b7a07	0.06810384
165	0x3cdcb70b	0.02694275
166	0x3c62ed23	0.013850483
167	0xbd73ceee	-0.059523515
168	0x3c3edc70	0.011649236
169	0x3cedb650	0.029017597
170	0xbcb74306	-0.022370826
171	0x3d098c50	0.033581078
172	0x3d4d6780	0.050147533
173	0x3bffeec7	0.007810447
174	0xbd529e6a	-0.051420607
175	0x3c185f40	0.009300053
176	0x3c86d64a	0.016459603
177	0xbd0e0a7c	-0.034677967
178	0xbd89c430	-0.06726873
179	0x3d2187c5	0.03943612
180	0x3cef17f4	0.029186226
181	0xbb29ada5	-0.0025890854
182	0x3d38904e	0.045059495
183	0x3d036e01	0.03208733
184	0x3d89c805	0.06727604
185	0x3ba71b55	0.005099694
186	0x3d70cf39	0.058791373
187	0xbd68624a	-0.05673436
188	0x3c3891f9	0.011265271
189	0xbb77e6b6	-0.0037826723
190	0xbdc04966	-0.09389
191	0xbd6c28ad	-0.05765598
192	0xbcf49b63	-0.02985925
193	0x3d9d6179	0.07684607
194	0x3dcbd8ec	0.09953484
195	0x3e22e39b	0.15907137
196	0xbd5ec0ec	-0.054383203
197	0xbb931d77	-0.0044895965
198	0x3ce6160b	0.028086683
199	0x3d175d64	0.0369543
200	0x3d424266	0.047426604
201	0xbdfcd563	-0.12345388
202	0x3e205ff5	0.15661605
203	0x3e949298	0.29018092
204	0x3e3f8b78	0.18705547
205	0xbcd0ae2d	-0.025473678
206	0x3cc1bc75	0.023649434
207	0xbd81e325	-0.063421525
208	0x3d93513f	0.07193231
209	0xbd58929a	-0.052874185
210	0xbe1559fa	-0.14585105
211	0x3ad9029a	0.0016556561
212	0x3e24e1b1	0.1610172
213	0x3e1da111	0.15393473
214	0x3d1bc95f	0.03803384
215	0xbd1264c9	-0.035740647
216	0x3cfc61b8	0.030808315
217	0x3c94e08a	0.018173475
218	0x3d7896bb	0.060690623
219	0xbe0916ba	-0.13387576
220	0xbb5086a3	-0.003181853
221	0x3c550c9b	0.013003494
222	0x3cacd778	0.021098837
223	0x3c284920	0.010271341
224	0xbd317e96	-0.043333612
225	0xb9971516	-0.00028816675
226	0xbd292aff	-0.04130077
227	0x3c80fc81	0.015745403
228	0xbb404e48	-0.0029343534
229	0x3d31e904	0.04343511
230	0x3cc4a660	0.024005115
231	0x3c5be3f1	0.013421045
232	0xbd7defd7	-0.061996307
233	0xbbb4473a	-0.005501655
234	0xbc580395	-0.013184448
235	0x3d4736df	0.048636314
236	0xbc43d1ea	-0.011951903
237	0x3c12f56a	0.008969644
238	0x3c19607a	0.009361381
239	0xb9431c5f	-0.00018607218
240	0xbce72c9d	-0.028219515
241	0x3c1f4df5	0.009723176
242	0x3b92b096	0.004476617
243	0x3c08288e	0.00831045
244	0x3d27d65e	0.04097592
245	0x3da5cb8b	0.08095463
246	0xbd54919b	-0.051896673
247	0x3d49fdfa	0.049314477
248	0xbdaa6c33	-0.083214186
249	0x3d3a33cf	0.045459565
250	0xbd396cba	-0.045269705
251	0x3dfa3619	0.122173496
252	0xbd340df8	-0.043958634
253	0xbdd49801	-0.10380555
254	0xbd7ba032	-0.06143207
255	0xbdadf2a2	-0.08493544

cl1.bias f4 [8]
0	0x3dc8bb4d	0.0980135
1	0xbd811da8	-0.063044846
2	0xbdcda974	-0.10042086
3	0xbde87bce	-0.11351739
4	0xbe1dc86d	-0.15408488
5	0x3df61787	0.12016206
6	0xbde1f4f7	-0.110330515
7	0x3e8d9e81	0.2765999

cl2.weight f4 [7, 8, 1, 1]
0	0xbdc672b4	-0.09689847
1	0xbdd44ef7	-0.10366624
2	0x3efb86ab	0.4912618
3	0x3f0ed7bd	0.5579794
4	0xbdefd176	-0.117098734
5	0x3cfcb2ad	0.030846918
6	0x3f0f3fb7	0.55956596
7	0x3cb1d1fc	0.021706574
8	0xbdb51a76	-0.08842938
9	0xbc6fc05a	-0.0146332625
10	0x3e138381	0.14405634
11	0xbd56a5b6	-0.052404128
12	0xbec1a9d9	-0.37824896
13	0x3e8fc443	0.28079423
14	0x3ecdf56e	0.4022631
15	0x3e944cf7	0.2896497
16	0xbd02f865	-0.03197517
17	0xbc209920	-0.009802133
18	0xbbc8d697	-0.0061290967
19	0x3e232718	0.15932882
20	0xbdd2a4f1	-0.10285366
21	0x3e860516	0.26175755
22	0xbc77fc44	-0.015135828
23	0x3dc26ac8	0.09493023
24	0x3e8a2981	0.2698479
25	0xbc89e392	-0.016832147
26	0x3e757b81	0.23972894
27	0x3d1d3adb	0.038386207
28	0xbed57b98	-0.41695857
29	0xbe74f464	-0.23921353
30	0x3f080dc8	0.5314603
31	0x3de4338a	0.11142643
32	0x3ea3bd98	0.31980586
33	0x3e055fb8	0.13024795
34	0xbd20479b	-0.03913079
35	0xb9f7ffc4	-0.00047302071
36	0x3ccc8558	0.024965927
37	0xbdc2ab32	-0.09505309
38	0xbe032de5	-0.12810476
39	0x3e33adb4	0.17546731
40	0xbcb4845d	-0.022035772
41	0x3f37790c	0.7166908
42	0xbd19546c	-0.037434027
43	0x3db00805	0.085952796
44	0xbeb56329	-0.35427216
45	0xb7bcf04d	-2.2523245e-05
46	0xbe3564ed	-0.17714281
47	0xbd24f27b	-0.04027031
48	0x3ec7253b	0.38895592
49	0x3d0838ae	0.03325718
50	0x3d86f9d9	0.065906234
51	0x3c074eee	0.008258564
52	0xbe16a4a4	-0.14711243
53	0x3e4a03b0	0.19727969
54	0x3e10bb40	0.1413393
55	0xbe9aaccb	-0.30209956

cl2.bias f4 [7]
0	0x3dbc900f	0.092071645
1	0xbcc9fa23	-0.024655407
2	0xbf2434d9	-0.6414314
3	0x3e69215f	0.22766636
4	0xbd37b1ae	-0.044847183
5	0x3c7c22eb	0.0153891845
6	0x3e11abb6	0.14225659

cl3.weight f4 [3, 7, 5, 5]
0	0xbc0f39ea	-0.008741835
1	0x3ca6cc94	0.020361222
2	0xbcc3069e	-0.023806866
3	0xbc916873	-0.01775
4	0xbcd921e5	-0.02650542
5	0xbc28c4b6	-0.010300806
6	0x3cc91554	0.024546303
7	0xbc697385	-0.014248733
8	0x3cdece04	0.027197845
9	0xbd408762	-0.04700411
10	0x3dbfea5f	0.093708746
11	0x3bfaee89	0.00765783
12	0xbc4126aa	-0.011789003
13	0x3e855f43	0.2604924
14	0x3d35f424	0.044422284
15	0xbd505c0e	-0.05086904
16	0xbe04ddd5	-0.12975247
17	0xbe6e3d80	-0.23265648
18	0x3d0397df	0.032127257
19	0xbde12dc7	-0.109950595
20	0x3d3bfbb7	0.04589435
21	0x3dd0e542	0.101999775
22	0xbd59dc20	-0.053188443
23	0x3d7863dc	0.06064211
24	0xbbffcecb	-0.007806634
25	0xbd9687c1	-0.07350112
26	0x3bab0c4c	0.0052199718
27	0x3d164b76	0.03669306
28	0x3c2ea478	0.01065933
29	0xbd2307e9	-0.039802466
30	0xbc8ad714	-0.01694826
31	0x3e036f33	0.12835388
32	0x3e57ec8f	0.21086334
33	0x3e55b858	0.20871103
34	0x3dc69a2b	0.09697374
35	0xbc21f0ed	-0.009884101
36	0x3dbc2480	0.09186649
37	0x3e6cd3c5	0.23127659
38	0xbcfe6f59	-0.031058954
39	0x3d116489	0.03549627
40	0xbd1a127a	-0.037615277
41	0x3e04ea75	0.12980063
42	0x3d61c62d	0.055120636
43	0xbe0d4e55	-0.13799413
44	0xbdaa8471	-0.083260424
45	0xbdf87212	-0.12131132
46	0x3dc443a3	0.09583213
47	0x3e105c9d	0.14097829
48	0xbce83981	-0.028347732
49	0x3d14c7b0	0.03632325
50	0xbcf671d4	-0.030083574
51	0x3e05b8f4	0.13058835
52	0x3e16c1cc	0.14722365
53	0x3e44e842	0.19229224
54	0x3d6d4bb0	0.05793351
55	0xbdcf5e15	-0.101253666
56	0x3e824e02	0.2545014
57	0xbef1c8aa	-0.47223407
58	0xbeed7647	-0.463793
59	0x3e2d78e9	0.16940655
60	0xbd5d3a3b	-0.05401061
61	0x3d8f1b05	0.069875754
62	0xbe0c959c	-0.13728946
63	0x3e3ec825	0.18631037
64	0xbd7d4c0a	-0.061840095
65	0x3d5b7574	0.05357881
66	0xbc314fc7	-0.010822243
67	0xbba275ae	-0.004957876
68	0x3e884d31	0.26621392
69	0xbdd061b2	-0.10174884
70	0xbcae959e	-0.021311577
71	0x3d882709	0.0664807
72	0xbd6fc51b	-0.058537584
73	0xbdb372f7	-0.08762162
74	0x3d1b9ffb	0.037994366
75	0x3d53d91c	0.051720724
76	0xbd9f7b0c	-0.07787141
77	0xbd3db0be	-0.046311133
78	0x3cbae981	0.022816421
79	0x3d78e82b	0.060768288
80	0xbbb9f829	-0.005675335
81	0xbd96f04e	-0.07370053
82	0xbdaf67da	-0.0856473
83	0xbdfd905d	-0.12381051
84	0xbd3d634f	-0.046237286
85	0xbae63d8d	-0.0017565951
86	0xbd096c7b	-0.03355072
87	0xbe85a6cb	-0.26103815
88	0xbe7ffa71	-0.2499788
89	0xbda298ad	-0.07939277
90	0x3d26a486	0.040684246
91	0x3cb8ab7d	0.02254271
92	0xbd44a82c	-0.048011944
93	0x3d23ee97	0.04002246
94	0x3e21c4ca	0.15797725
95	0xbd46d7d1	-0.048545662
96	0x3c9a7e41	0.01885903
97	0xbab862b3	-0.0014067501
98	0xbd139bc6	-0.03603723
99	0xbaf126a9	-0.0018398362
100	0xbcae1bef	-0.021253554
101	0xbdc0c00e	-0.094116315
102	0xbcf82284	-0.030289896
103	0x3b39cf22	0.002835222
104	0xb9932bfc	-0.00028070796
105	0x3d3add1b	0.04562102
106	0x3ca9be68	0.020720676
107	0x3e111823	0.14169364
108	0x3ce0e419	0.027452515
109	0xbda2a18e	-0.0794097
110	0x3d93bb8f	0.07213508
111	0xbbac4d4f	-0.0052582393
112	0x3de20ff0	0.11038196
113	0x3e13f848	0.1445018
114	0x3c49745a	0.012295807
115	0x3bf71281	0.0075400476
116	0xbe15865e	-0.14602038
117	0xbd44112a	-0.04786793
118	0x3e36b92d	0.17844076
119	0xbc83ad4b	-0.016073843
120	0xbc9b26b3	-0.018939352
121	0xbd72a791	-0.059241835
122	0x3be2b94d	0.006919062
123	0x3be9ad24	0.0071312357
124	0xbd276997	-0.040872183
125	0x3c9e53e1	0.019327106
126	0xbc059a2b	-0.008154432
127	0x3d0dd2d4	0.03462489
128	0x3c83d52f	0.016092865
129	0xb9676d3a	-0.00022070567
130	0xbd9318ac	-0.0718244
131	0xbd1b1e2b	-0.037870567
132	0xbb358629	-0.0027698374
133	0xbcda8098	-0.026672646
134	0x3c1bdf8d	0.009513748
135	0xbd8f0b01	-0.06984521
136	0x3dccf14d	0.10006962
137	0x3cf22656	0.029559296
138	0xbd0f06da	-0.034918644
139	0x3d0816f8	0.03322503
140	0x3dc3a1f9	0.09552378
141	0x3ef4ab16	0.47786778
142	0x3d84c472	0.064827815
143	0xbd1aeaf3	-0.03782172
144	0xbc2f4045	-0.010696475
145	0xbdd4553d	-0.103678204
146	0x3d3dbbbd	0.04632162
147	0xbd3672ac	-0.044542953
148	0xbc01aa06	-0.007914072
149	0xbc9ca8bc	-0.019123428
150	0xbcdd90f1	-0.027046653
151	0x3da340f3	0.079713725
152	0x3d300e7b	0.04298256
153	0x3cd3d392	0.02585772
154	0xbd4ae910	-0.049538672
155	0x3cb73c5f	0.022367654
156	0x3d8fc949	0.07020814
157	0x3d918924	0.071062356
158	0xbdb03d57	-0.0860545
159	0x3d08560f	0.033285197
160	0xbd86f681	-0.06589986
161	0x3ded9b20	0.11601853
162	0x3ddffd1b	0.10936948
163	0x3d95fb74	0.073233515
164	0x3d0a95a7	0.033834126
165	0xbb077102	-0.0020666723
166	0xbe310f6f	-0.17291044
167	0xbdf70f86	-0.12063508
168	0x3cdd6c13	0.027029073
169	0xbca46461	-0.020067396
170	0x3db97875	0.090561785
171	0xbddb77c1	-0.107162006
172	0xbd49e709	-0.049292598
173	0x3e16ab3c	0.14713758
174	0x3c469e80	0.01212275
175	0xbb8f27e5	-0.0043687695
176	0x3cd23b49	0.025663035
177	0xbd451664	-0.048117056
178	0xbc936506	-0.017992508
179	0x3a365c77	0.00069565274
180	0xbc0c24f2	-0.00855373
181	0x3c60f856	0.013731083
182	0xbcec689b	-0.028858474
183	0x3c9c8b3e	0.019109365
184	0xbd381934	-0.04494591
185	0x3daf0d95	0.085475124
186	0x3a8e8182	0.0010872337
187	0xbd71ac5a	-0.059002258
188	0x3e70a7ed	0.23501559
189	0x3d200bab	0.039073627
190	0xbcc716fa	-0.024302948
191	0xbddee5a1	-0.10883642
192	0xbe745c23	-0.23863272
193	0x3cfcedad	0.030875051
194	0xbd940e23	-0.07229259
195	0x3d4135c9	0.047170434
196	0x3dc1ee9a	0.09469338
197	0xbd484e40	-0.04890275
198	0x3d30a401	0.043125156
199	0xbc87e685	-0.016589412
200	0xbd6fd369	-0.058551226
201	0xbd3b4584	-0.045720592
202	0xbdb073cd	-0.08615837
203	0x3d801f30	0.062559485
204	0xbaf346a2	-0.0018560479
205	0x3d658942	0.056039102
206	0x3c958bfe	0.01825523
207	0x3df11e5e	0.1177337
208	0x3e404971	0.18778016
209	0x3e0f1549	0.13972963
210	0xbdd6d1c5	-0.10489229
211	0xbd200692	-0.039068766
212	0xbdd8dff4	-0.10589591
213	0xbe65602c	-0.22399968
214	0xbdaf9389	-0.08573062
215	0x3d0765b8	0.03305599
216	0x3e015dc5	0.12633426
217	0x3d218891	0.03943688
218	0xbe69abb8	-0.22819412
219	0xbd605b80	-0.05477476
220	0xbd6deefa	-0.058089234
221	0x3da94898	0.08265799
222	0x3ddf0a7c	0.108906716
223	0xbd375cb3	-0.04476614
224	0x3d536844	0.051613107
225	0xbd91674f	-0.07099783
226	0x3e12f75e	0.14352176
227	0x3e329600	0.17440033
228	0x3e29645e	0.16542193
229	0x3d4df783	0.050284874
230	0xbdd44436	-0.10364573
231	0x3e7847bf	0.24246119
232	0xbee41c46	-0.4455282
233	0xbeec8522	-0.46195322
234	0x3e13668d	0.14394589
235	0xbd20371f	-0.039115068
236	0x3d06824f	0.032839116
237	0xbdd67a7b	-0.1047258
238	0x3e6eb0a9	0.23309578
239	0xbcdd842c	-0.027040564
240	0x3d9ce87a	0.07661529
241	0xbce0ba97	-0.027432723
242	0xbc9f8077	-0.019470436
243	0x3e741f6c	0.23840111
244	0xbddd4dc3	-0.108058475
245	0xbc2d1563	-0.010564181
246	0x3d97c78b	0.07411107
247	0xbd93fbaf	-0.07225739
248	0xbda9a4ec	-0.082834095
249	0x3d368dba	0.044568755
250	0x3cdc353f	0.026880858
251	0xbd2c886f	-0.0421223
252	0x3da02cd6	0.07821052
253	0xbd604636	-0.05475446
254	0x3c863047	0.016380442
255	0xbd83650c	-0.064157575

cl3.bias f4 [3]
0	0x3dc7e284	0.09760001
1	0xbd61cfc5	-0.055129785
2	0xbc4b7e82	-0.0124202985
