upscalers/nn/checkpoints/weights-8_7.9_5.pt (torch, 12760 bytes, 6 tensors)

cl1.weight f4 [8, 3, 9, 9]
0.010233032 0.0032589121 -0.051843308 0.0058490885 0.016224083 -0.008985752 0.012450509 0.036999665
-0.046217795 0.0082309265 0.045869157 -0.017899306 0.016453175 0.087879896 0.044645265 -0.027463555
-0.015732812 -0.0026148946 0.024541471 0.026401607 0.04938558 0.11825823 -0.1214628 -0.2541947
0.019301275 -0.05908042 0.016287308 -0.033462062 -0.0503611 0.099892125 0.07054959 -0.16779995
-0.24329352 -0.051127262 -0.015827974 -0.045893677 0.09313724 -0.0059612887 0.04447543 0.062344585
0.09043425 0.052465644 0.08415214 0.01217164 0.024042293 0.004539892 -0.009225223 -0.0780227
-0.03961678 0.08567728 0.19917473 0.092964046 0.07487041 0.037472483 0.015651649 -0.048532575
-0.024368223 0.0733837 -0.009637204 -0.0010297683 0.010258552 0.035408508 -0.04974781 -0.0061842394
0.004570564 0.019444704 -0.032221563 -0.029483443 -0.028931564 0.001198994 0.017424397 -0.03642421
0.0038025153 0.031228404 -0.04201817 0.048418585 -0.026685763 -0.006563409 0.028081628 -0.0534266
0.041943695 0.016049659 0.05331155 -0.02298934 -0.008042622 -0.008447435 -0.024071725 0.017241796
-0.019614836 0.022069393 -0.024324289 0.008827052 -0.04750222 -0.033178423 0.036221575 0.016591622
-0.011201664 0.004496933 -0.0075845695 -0.018430226 -0.01838605 0.026703361 0.1798286 0.1439154
0.049062103 0.039463233 0.02352036 -0.019211365 0.05334066 -0.0034011942 0.14942656 0.3107336
0.22311655 0.1072829 0.15190487 -0.02274337 0.07082335 -0.02655586 -0.054641437 0.025889276
0.14436351 0.16184434 0.083275914 -0.05978829 -0.10501505 0.03256725 -0.037067957 -0.0004137823
0.006906439 -0.037175525 0.023258772 -0.05716989 -0.17213504 -0.10982012 -0.03590779 0.029891204
-0.02561665 0.00346865 0.052432884 0.13625498 -0.06047745 -0.0621643 -0.021469276 0.09216928
0.029106189 -0.016746974 -0.028508184 0.011809837 0.0072053242 -0.04814926 0.024263034 0.019334033
0.0077034445 -0.026622035 -0.0056498023 0.039586462 -0.06505398 0.06304824 -0.009380068 -0.008970148
0.033292398 -0.025531555 -0.07004684 0.00414993 0.05844415 0.050716504 0.0056066867 -0.069544435
0.027427152 0.015491778 -0.012020482 0.05058906 0.0616772 -0.019400667 -0.038419675 0.00245278
0.036967836 0.009722153 -0.074954815 0.063318625 0.0049821795 -0.012579448 0.05996092 0.074856535
0.08598018 0.06103421 0.13572004 -0.014476413 0.048685603 2.3499317e-05 -0.07280103 -0.022096593
0.008904418 0.06707519 0.102566555 0.20791556 0.006631149 0.025815781 0.024181288 0.016299197
0.015521525 -0.13590351 0.04853705 0.15894414 0.14889678 -0.031469148 -0.0042058975 -0.036579553
0.092326865 -0.042944986 -0.097257964 -0.034498993 0.10859631 0.17316684 0.052985214 -0.018794782
0.0053843134 0.014738391 0.044052538 -0.11638267 -0.029850647 -0.007897493 0.027902072 0.0013003729
-0.04988171 0.0022124415 -0.025103258 0.012280307 0.023095869 0.018286798 0.006167726 0.032624986
-0.04152229 -0.002649607 -0.02808827 0.05993503 -0.038197286 0.020273138 -0.007899362 0.002642787
-0.007371956 0.0046163215 -0.017413547 0.0034305493 0.048247073 0.06300101 -0.061783 0.020408852
-0.03707077 0.0034503539 -0.038526777 0.13501899 -0.056953996 -0.10346105 -0.0734674 -0.043275896
00000000: 72a8 273c 7993 553b a659 54bd b6a9 bf3b
00000010: 5ee8 843c fa38 13bc 38fd 4b3c f68c 173d
00000020: df4e 3dbd 02db 063c 4ce1 3b3d 91a1 92bc
00000030: cfc8 863c 60fa b33d f4dd 363d 40fb e0bc
00000040: 19e2 80bc a75e 2bbb 320b c93c 2f48 d83c
00000050: 8948 4a3d 5f31 f23d 7dc1 f8bd cf25 82be
00000060: b51d 9e3c 4ffe 71bd f66c 853c 840f 09bd
00000070: 7147 4ebd 3e94 cc3d 4e7c 903d c0d3 2bbe
00000080: f021 79be d26a 51bd aba9 81bc 02fb 3bbd
00000090: bdbe be3d ea56 c3bb de2b 363d 095d 7f3d
000000a0: 9835 b93d 37e6 563d f557 ac3d 8f6b 473c
000000b0: 58f4 c43c 60c3 943b 6425 17bc 5eca 9fbd
000000c0: 3445 22bd 9277 af3d 76f4 4b3e ef63 be3d
000000d0: a855 993d bf7c 193d e337 803c 18ca 46bd
000000e0: de9f c7bc 314a 963d 5de5 1dbc 4af9 86ba
000000f0: 7c13 283c 8308 113d 5cc4 4bbd 29a5 cabb
00000100: abc4 953b 804a 9f3c c2fa 03bd 4387 f1bc
00000110: e301 edbc 9027 9d3a 9cbd 8e3c 8d31 15bd
00000120: 9f33 793b b6d2 ff3c 3f1b 2cbd 9152 463d
00000130: 1a9c dabc de11 d7bb 710b e63c dad5 5abd
00000140: 27cd 2b3d 937a 833c 365d 5a3d 2454 bcbc
00000150: 34c5 03bc 1c67 0abc 1132 c5bc ab3e 8d3c
00000160: 4baf a0bc dfca b43c bb43 c7bc 579f 103c
00000170: b091 42bd 19e6 07bd 135d 143d 27eb 873c
00000180: 2f87 37bc 025b 933b fb87 f8bb fcfa 96bc
00000190: 579e 96bc 02c1 da3c fd24 383e 8f5e 133e
000001a0: 58f5 483d 33a4 213d c5ad c03c 2761 9dbc
000001b0: bc7b 5a3d 92e6 5ebb 4703 193e 7918 9f3e
000001c0: aa78 643e 23b7 db3d f38c 1b3e 4e50 babc
000001d0: d50b 913d ad8b d9bc b3cf 5fbd bf15 d43c
000001e0: 07d4 133e 86ba 253e 908c aa3d 91e4 74bd
000001f0: 2112 d7bd 3d65 053d 92d4 17bd ecf0 d8b9
00000200: 694f e23b 5d45 18bd 2e89 be3c f92a 6abd
00000210: 2b44 30be 5fe9 e0bd 0c14 13bd 66de f43c
00000220: 02da d1bc 4a52 633b ddc3 563d 6d86 0b3e
00000230: 34b7 77bd fe9f 7ebd 56e0 afbc 3fc3 bc3d
00000240: 1a70 ee3c f330 89bc ff89 e9bc 0c7e 413c
00000250: a41a ec3b 2938 45bd 45c3 c63c 6862 9e3c
00000260: 2d6d fc3b 7416 dabc fa21 b9bb 6a25 223d
00000270: 053b 85bd 701f 813d dbae 19bc 87f7 12bc
00000280: 9c5d 083d 8d27 d1bc b874 8fbd 23fc 873b
00000290: 2263 6f3d 1cbc 4f3d 4cb8 b73b 506d 8ebd
000002a0: e8ae e03c 3ad1 7d3c 8ef1 44bc 7936 4f3d
000002b0: 3ba1 7c3d 26ee 9ebc f35d 1dbd d2be 203b
000002c0: 966b 173d aa49 1f3c e981 99bd 32ad 813d
000002d0: 8d41 a33b 071a 4ebc 9599 753d 624e 993d
000002e0: 6016 b03d 02ff 793d 32fa 0a3e 7a2e 6dbc
000002f0: 8e6a 473d 6620 c537 b518 95bd ea03 b5bc
00000300: d6e3 113c b85e 893d 6a0e d23d d1e7 543e
00000310: 1c4a d93b 9e7b d33c d617 c63c e585 853c
00000320: ff4d 7e3c 4a2a 0bbe c9ce 463d 41c2 223e
00000330: 6678 183e cbe5 00bd a0d1 89bb 71d4 15bd
00000340: de15 bd3d 15e7 2fbd 2f2f c7bd d14e 0dbd
00000350: be67 de3d a652 313e 0607 593d 84f7 99bc
00000360: e56e b03b 4b79 713c 6f70 343d 0a5a eebd
00000370: 5889 f4bc 7d64 01bc e392 e43c 4671 aa3a
00000380: c450 4cbd 9cfe 103b 59a5 cdbc 5733 493c
00000390: 8c33 bd3c 32ce 953c a31a ca3b c7a1 053d
000003a0: 4713 2abd 07a5 2dbb 5f19 e6bc 6f7e 753d
000003b0: c274 1cbd da13 a63c 536c 01bc 9c32 2d3b
000003c0: 7390 f1bb 8344 973b dba6 8ebc 11d3 603b
000003d0: b99e 453d ac06 813d 2c10 7dbd 7730 a73c
000003e0: 85d7 17bd 551f 623b 41ce 1dbd 6b42 0a3e
000003f0: 9848 69bd 63e3 d3bd 1476 96bd 1142 31bd

cl1.bias f4 [8]
0.040111788 -0.073452905 -0.0499089 -0.08567341 -0.36792064 0.109833255 -0.072772205 0.2404597
00000000: 424c 243d 7a6e 96bd 466d 4cbd 8a75 afbd
00000010: 1860 bcbe 42f0 e03d 9809 95bd 113b 763e

cl2.weight f4 [7, 8, 1, 1]
-0.11525014 -0.22728463 0.46612272 0.48617676 -0.010160572 0.022683682 0.48534763 0.014700115
-0.11956779 -0.096024305 0.13480876 -0.09504459 -0.3751847 0.293804 0.37397286 0.32928842
-0.03265683 -0.01068257 0.03952333 0.11103287 -0.1772365 0.26298612 -0.057958297 0.050821956
0.3003284 -0.19123854 0.27372968 -0.098504804 -0.39133507 -0.301503 0.48503315 0.108143255
0.29541144 0.06359586 -0.047582615 0.17962022 0.21438307 -0.085974745 -0.16684651 0.17203699
-0.013956213 0.6298369 -0.089825846 0.25016126 -0.37745565 -0.046223536 -0.25381628 -0.0097710285
0.3828325 -0.11003577 0.17317744 0.09063981 -0.08697078 0.19119208 0.2121497 -0.3241884
00000000: 4408 ecbd 4dbd 68be a3a7 ee3e 29ec f83e
00000010: 8778 26bc 21d3 b93c 7c7f f83e c0d8 703c
00000020: f5df f4bd 64a8 c4bd 4f0b 0a3e bda6 c2bd
00000030: 3618 c0be 7a6d 963e 5f79 bf3e 7e98 a83e
00000040: 2bc3 05bd f205 2fbc 37e3 213d 3465 e33d
00000050: 7c7d 35be 1ea6 863e ae65 6dbd af2a 503d
00000060: a5c4 993e 09d4 43be 4c26 8c3e e3bc c9bd
00000070: 125d c8be 9a5e 9abe 4456 f83e 367a dd3d
00000080: 2b40 973e 8c3e 823d fde5 42bd 5dee 373e
00000090: 3c87 5b3e 8713 b0bd d0d9 2abe 772a 303e
000000a0: 9aa8 64bc fe3c 213f 9df6 b7bd 2315 803e
000000b0: de41 c1be e454 3dbd 35f4 81be aa16 20bc
000000c0: 9f02 c43e 6f5a e1bd 6d55 313e 5da1 b93d
000000d0: bc1d b2bd dbc7 433e c53d 593e 06fc a5be

cl2.bias f4 [7]
0.21482472 0.06672779 -0.5520177 0.2996893 -0.026929718 0.0679793 0.20030597
00000000: 03fb 5b3e 94a8 883d 0851 0dbf e070 993e
00000010: b69b dcbc bb38 8b3d 021d 4d3e

cl3.weight f4 [3, 7, 5, 5]
0.0098631615 -0.016252317 -0.02650184 -0.021362152 -0.015109707 -0.03221985 -0.009718436 -0.0076500596
0.049318925 -0.02166256 0.090390645 -0.01930437 -0.022296553 0.17092991 0.017151063 -0.021603126
-0.023480767 -0.12696087 -0.013121675 -0.07511892 0.013519451 0.16249415 -0.073217675 0.008519449
-0.010260441 -0.05460931 0.046310917 0.03582366 0.05212217 -0.026824968 0.026445797 0.1811097
0.19182532 0.21937998 0.08245206 -0.043556545 0.07716603 0.14644238 -0.042975165 -0.01444127
-0.07270437 0.1232714 -0.02159356 -0.10357445 -0.10501736 -0.12779254 0.13276534 0.107171744
-0.016985334 0.029859934 -0.07158142 0.1853043 0.081464246 -0.045616 0.110642746 -0.077549964
0.19733103 -0.31477296 -0.5427712 0.21627215 -0.034484647 0.122276545 -0.03397716 0.31035677
0.037893668 -0.016516853 -0.059617963 0.002488632 0.095998675 -0.13518368 0.047450677 -0.0013325858
0.004675353 -0.09252001 0.04166848 0.016143383 -0.089655355 -0.06890623 -0.010781119 0.04795956
-0.006381203 -0.06463232 -0.058455754 -0.113239184 -0.057348106 0.038961176 -0.0030861916 -0.19056311
-0.15658326 -0.0077399793 -0.016348036 -0.037627414 -0.12230459 0.015331978 0.13536254 -0.01626023
0.03746803 0.02307525 0.0071226605 0.046462245 -0.023579588 -0.058368176 -0.031170735 0.026179167
-0.01905855 0.07671981 0.054440442 0.13240248 0.0620633 -0.085057184 0.056851704 0.0012597482
0.0753994 0.14064251 -0.013985833 -0.031443473 -0.13626727 -0.07952723 0.15561229 -0.047527242
-0.04585436 -0.046706505 -0.023917424 0.045080412 -0.011259918 0.016403347 -0.0045843665 -0.009990257
0.013536322 -0.000547051 -0.049373075 -0.031091873 -0.016488157 -0.030146718 -0.0089608515 -0.07561469
0.06831653 -0.014250596 -0.0035633272 0.019530727 0.017494854 0.328966 -0.04133775 -0.048891775
-0.0046748053 -0.123452775 0.044727653 -0.060936823 -0.015006361 0.005810676 0.004376465 0.08407041
0.047460783 0.040275957 -0.014773226 0.035874974 0.05004964 0.058712717 -0.08179561 0.03390872
-0.057203367 0.101393186 0.1018135 0.08850382 0.047564983 -0.026898524 -0.17794068 -0.1534074
-0.014522425 -0.023734486 0.07857354 -0.09114471 -0.05950093 0.12421317 0.06143586 0.020831825
-0.009545189 -0.07132607 -0.040951144 -0.019960878 0.017702801 0.034695238 0.0118611 0.035022967
-0.037729524 0.10904308 0.0025334752 -0.040497668 0.17306228 0.0074475235 -0.07856987 -0.12663114
-0.23850773 -0.037864767 -0.08568622 -0.0036795286 0.1600579 -0.10830674 0.016863208 0.0019309003
-0.11569657 -0.030788874 -0.07383128 0.06637363 0.08116226 -0.005593852 0.0041984273 0.09316116
0.13314146 0.12807344 -0.09569604 0.015554675 -0.054984365 -0.15398969 -0.0011772944 0.010150122
0.12686399 0.006923359 -0.23043583 -0.064688616 -0.07566059 0.08491446 0.116214074 -0.051331375
0.037305105 -0.08416477 0.19132698 0.07569938 -0.09888417 0.11731299 -0.0483278 0.15804142
-0.22577389 -0.48829287 0.1874037 -0.033234157 0.0683892 -0.017714286 0.28773355 0.03942315
0.0034378727 -0.045921016 -0.018520456 0.08333043 -0.118779734 0.032110494 0.020550106 -0.005241548
-0.09486521 0.046413183 0.022980478 -0.021987684 0.061000988 -0.07515126 -0.007857486 -0.0585927
00000000: 1999 213c 9423 85bc 631a d9bc aeff aebc
00000010: b48e 77bc f6f8 03bd 133a 1fbc 5aad fabb
00000020: a402 4a3d ae75 b1bc bb1e b93d 3324 9ebc
00000030: 43a7 b6bc 4008 2f3e 6380 8c3c 0af9 b0bc
00000040: bd5a c0bc 0802 02be 4bfc 56bc f3d7 99bd
00000050: b080 5d3c de64 263e 26f3 95bd 2995 0b3c
00000060: 691b 28bc 03ae 5fbd 84b0 3d3d d5bb 123d
00000070: 0e7e 553d 09c0 dbbc dba4 d83c d274 393e
00000080: db6d 443e 25a5 603e a0dc a83d 5968 32bd
00000090: 3909 9e3d fef4 153e ba06 30bd 149b 6cbc
000000a0: 07e6 94bd b775 fc3d fae4 b0bc d71e d4bd
000000b0: 5713 d7bd 0cdc 02be a3f3 073e dc7c db3d
000000c0: d424 8bbc d29c f43c 4899 92bd 69c0 3d3e
000000d0: bad6 a63d d8d7 3abd aa98 e23d 84d2 9ebd
000000e0: 2511 4a3e ec29 a1be 0ef3 0abf 7276 5d3e
000000f0: c63f 0dbd 206c fa3d a22b 0bbd 15e7 9e3e
00000100: 6436 1b3d 5a4e 87bc f731 74bd 5118 233b
00000110: f49a c43d 976d 0abe a45b 423d 29aa aeba
00000120: b433 993b 227b bdbd 91ac 2a3d 213f 843c
00000130: 3a9d b7bd b61e 8dbd 4aa3 30bc 3e71 443d
00000140: 6919 d1bb f35d 84bd 4d6f 6fbd f2e9 e7bd
00000150: d9e5 6abd c195 1f3d b441 4abb fa22 43be
00000160: 5d57 20be a79f fdbb 51ec 85bc 341f 1abd
00000170: d47a fabd fa32 7b3c 7a9c 0a3e 2d34 85bc
00000180: 1478 193d 4f08 bd3c 3565 e93b 324f 3e3d
00000190: fb29 c1bc 7813 6fbd c559 ffbc b175 d63c
000001a0: ad20 9cbc 471f 9d3d f1fc 5e3d 8494 073e
000001b0: 1636 7e3d 7632 aebd 55dd 683d 231e a53a
000001c0: 006b 9a3d 9704 103e d624 65bc dfca 00bd
000001d0: a689 0bbe 2cdf a2bd d458 1f3e edab 42bd
000001e0: c8d1 3bbd 524f 3fbd 79ee c3bc 3da6 383d
000001f0: 857b 38bc 5060 863c 7438 96bb 2dae 23bc
00000200: 73c7 5d3c f967 0fba 6c3b 4abd 62b4 febc
00000210: 2c12 87bc 40f6 f6bc 89d0 12bc e0db 9abd
00000220: 89e9 8b3d 557b 69bc b686 69bb e7fe 9f3c
00000230: 5e51 8f3c 3b6e a83e c651 29bd be42 48bd
00000240: 1c2f 99bb cfd4 fcbd 5834 373d e498 79bd
00000250: 3ddd 75bc 7c67 be3b 7368 8f3b 1b2d ac3d
00000260: 3d66 423d 67f8 243d 670b 72bc a3f1 123d
00000270: da00 4d3d bf7c 703d 7584 a7bd dfe3 0a3d
00000280: 144e 6abd 3ba7 cf3d 9983 d03d 7e41 b53d
00000290: 80d3 423d 4b5a dcbc 1536 36be d416 1dbe
000002a0: 77ef 6dbc d36e c2bc 2aeb a03d 14aa babd
000002b0: 3fb7 73bd 7963 fe3d 2ba4 7b3d 81a7 aa3c
000002c0: 6d63 1cbc 6713 92bd 63bc 27bd ff84 a3bc
000002d0: 7705 913c 981c 0e3d 0f55 423c 3e74 0f3d
000002e0: 468a 1abd fa51 df3d a908 263b e2e0 25bd
000002f0: 3d37 313e 5b0a f43b 3de9 a0bd 98ab 01be
00000300: 5f3b 74be 1618 1bbd 427c afbd 3f24 71bb
00000310: 38e6 233e edcf ddbd b624 8a3c 4316 fd3a
00000320: 53f2 ecbd f338 fcbc db34 97bd e6ee 873d
00000330: 6638 a63d a24c b7bb f692 893b 47cb be3d
00000340: 3c56 083e af25 033e 49fc c3bd 09d9 7e3c
00000350: 4937 61bd 79af 1dbe 724f 9aba b34c 263c
00000360: a2e8 013e 58dd e23b 5ff7 6bbe 777b 84bd
00000370: f0f3 9abd a2e7 ad3d a501 ee3d d940 52bd
00000380: 3dcd 183d 945e acbd 38eb 433e 4708 9b3d
00000390: c983 cabd cb41 f03d 5ff3 45bd 9cd5 213e
000003a0: 4531 67be 8601 fabe c1e6 3f3e 8a20 08bd
000003b0: a30f 8c3d 8d1d 91bc d051 933e 2b7a 213d
000003c0: ef4d 613b ad17 3cbd 36b8 97bc 25a9 aa3d
000003d0: ca42 f3bd 4b86 033d b258 a83c 4bc1 abbb
000003e0: b148 c2bd c01b 3e3d 8e41 bc3c 841f b4bc
000003f0: 2cdc 793d e7e8 99bd afbc 00bc e6fe 6fbd

cl3.bias f4 [3]
0.016585147 -0.087274864 -0.114154205
00000000: 93dd 873c 2abd b2bd aec9 e9bd
