upscalers/srcnn/checkpoints/default-checkpoint.pt (torch, 12650 bytes, 6 tensors)

cl1.weight f4 [8, 3, 9, 9]
00000000: 1eef 923c cf84 46bc f8be 15bd 39b6 12bc
00000010: 4a6b c63b c7dd d73b 4820 b0bc eb51 153d
00000020: 643f 08bd df1e 31bd 8b13 fa3c f35f f2bb
00000030: 8cad 073c 0e61 d23d 53cd b73d b9b1 bfbc
00000040: 192b 743c d728 993a 7174 d63c 5859 323d
00000050: 2b5d 1d3d aa53 df3d 25f2 f3bd 4608 6abe
00000060: 494b 163d 041a 02bd 0103 e33c 58dc 03bd
00000070: 172b 4cbd 23c4 933d 099f 643d a037 40be
00000080: 04ab 79be d345 75bd 506b d3bc 7a53 41bd
00000090: 69ba 8e3d 61ba cfbb 0aa9 cf3c f828 153d
000000a0: 6d2f d63d 1b7f d13d 7625 8a3d 1ec8 e8bb
000000b0: 2c90 183c 0cd5 60bb 3177 f8ba a551 bcbd
000000c0: b572 97bd 55d4 cf3d c700 823e 9f09 b53d
000000d0: f1f3 b73d 5a69 103d 432e 7d3c a2cb 40bd
000000e0: b3f1 31bd 0df3 ad3c a656 53bd 3c8c c5bb
000000f0: 51b7 87bb 8f9b 253d acea 50bd 8a90 c6bc
00000100: bd2c 173c 0a75 cc3b 92c9 b1bd ce3b 8bbd
00000110: b70a cfbc 38cf 32bc 1422 9f3b 4969 24bd
00000120: 2c95 633b 2b94 1a3d 8b07 babc 8e7d 0e3d
00000130: 5ace 2bbd 4a65 5d3a 8036 0e3d 8390 fabc
00000140: fbbf 123d 4597 083d 6d6b 2e3d f52c 253c
00000150: 494d 32bc 9982 263c 8c1e f7bc 576b 173a
00000160: a8e3 d8bb 5c53 b43b ecd0 ffbc 220b f9ba
00000170: f695 84bd bde0 b3bd 531b 073d 3dbe 58bc
00000180: c26a 2cbd 07be 063d d122 8abc a259 43bc
00000190: e568 7cbd 5c5d c7bd 901a 983d 346e 143e
000001a0: f209 8f3c 3b88 efbb 158c 093c 4e2d 2bbd
000001b0: 8c29 573d d94f 5bbd 25f9 813d c4c4 9f3e
000001c0: d284 b13e d35d 333e e6f8 203e 84d4 f8bc
000001d0: 4831 9f3d aa43 093c 4613 7fbc eabc bc3d
000001e0: 2876 913e d7eb d23e c34b 823e 3a27 65bb
000001f0: 27e9 67bd d721 c73d e541 64bd 4c58 a3bc
00000200: 5926 8a3c 6e84 873b a202 083e 9fa0 10bd
00000210: 339b 65be 4883 f6bd e56f 3dbd c377 463d
00000220: f472 14bd 495c 063c b4b3 8a3d 5833 433e
00000230: 5afa 89bd 9ecb 9abd 2a22 64bb ae16 c73d
00000240: 6393 ab3c 74f1 1fbd aa16 24bd dae7 abbb
00000250: fbad 4c3d ff0a d6bc 1019 2c3d 5707 bf3c
00000260: cb8d 5cbb 319d 73bc 5ed7 e2bc 1935 223d
00000270: 2c6c babd 48ef 903d bec4 c7bc cdc6 94bb
00000280: 069c 303d c487 31bd 75ac 5dbd 3576 33bd
00000290: 8beb 8a3d b0e3 d93c 2f1f 613c c695 64bd
000002a0: 308b 3e3c 8233 fc3c b903 b9bc b3d3 f93c
000002b0: 2941 3d3d 2424 403c b075 47bd 51ff 1c3c
000002c0: b951 843c d1a2 1bbd 13c9 82bd c5f2 243d
000002d0: 0a93 f63c a53b ce38 a5c3 3d3d aabe fb3c
000002e0: e362 863d 34de 303b 1c5d 593d 8b7d 6cbd
000002f0: 0ed1 3e3c 9cae 2fbb 9c35 b9bd b5ad 70bd
00000300: 2aa5 07bd 640b 9e3d fcd4 d13d 7b1b 203e
00000310: d188 6abd ccd9 8cbb aa48 cd3c a90b 1d3d
00000320: 408a 413d bd4b 02be 71da 233e b512 993e
00000330: b2cd 3f3e 69f7 cabc b341 d33c 7f28 82bd
00000340: 0118 953d c944 51bd aee0 16be ba4e 353b
00000350: 7426 273e 2cd8 1a3e 7112 263d 8863 0cbd
00000360: dd91 003d 88b7 903c e371 803d 0051 08be
00000370: 044c 91bb a07e 1f3c ad22 8c3c dd7d 233c
00000380: 23e0 31bd 38a6 29bb 0f43 29bd 88c1 9a3c
00000390: b4e4 a4ba 85c0 3d3d 70ef d93c bffb 483c
000003a0: 46ce 82bd 92ce 89bb d1c4 4cbc a6a2 3d3d
000003b0: ab35 21bc 373b 0d3c 9b01 0b3c ed45 daba
000003c0: b9de fbbc 519b 2f3c 29ff 0d3c ce8e ee3b
000003d0: ec05 243d f61f a03d 5094 52bd 95e6 423d
000003e0: ec4e acbd 3827 3f3d 6efa 3fbd 9f3d f43d
000003f0: 3013 32bd c22d cfbd 2b9e 78bd ac80 a9bd
0.017936286 -0.012116625 -0.036559075 -0.008954578 0.0060552703 0.006587717 -0.021499768 0.036455076
-0.03326358 -0.04324233 0.030526897 -0.007396692 0.008281123 0.10272418 0.08974709 -0.023400174
0.014902853 0.0011685145 0.02617857 0.043542236 0.03841893 0.109046295 -0.1191142 -0.22854719
0.03669289 -0.03176309 0.027711393 -0.032192558 -0.04984578 0.072151445 0.05581573 -0.18771219
-0.24381644 -0.059881043 -0.025808007 -0.04719875 0.06969149 -0.006339357 0.025349159 0.036416024
0.104582645 0.102293216 0.06745426 -0.007103934 0.009311717 -0.0034306673 -0.001895642 -0.0919526
-0.073949255 0.10147921 0.25391218 0.08839726 0.08982075 0.03525672 0.015452924 -0.0470692
-0.043443393 0.02123406 -0.051596306 -0.00602868 -0.004141726 0.040431555 -0.05100505 -0.024238843
0.009226975 0.006239538 -0.086810246 -0.06798516 -0.025273664 -0.010913663 0.0048563574 -0.04013947
0.0034726365 0.03773896 -0.022708675 0.034787707 -0.04194484 0.0008445574 0.034719944 -0.030586487
0.035827618 0.033347387 0.042582918 0.010081519 -0.010882684 0.010162973 -0.030165933 0.0005776188
-0.0066189356 0.0055031013 -0.031227551 -0.001900051 -0.06473915 -0.087831 0.032985043 -0.01322895
-0.042094 0.032896068 -0.016862305 -0.011923226 -0.061623473 -0.09734604 0.074269414 0.14495164
0.017460797 -0.007309941 0.008395215 -0.041791253 0.052529857 -0.053542946 0.06346349 0.31204808
0.34671646 0.1751626 0.15719947 -0.030374773 0.077730715 0.008377949 -0.01556856 0.0921572
0.2841046 0.41195557 0.25448427 -0.0034966008 -0.056618836 0.09723251 -0.055726904 -0.019939564
0.016863989 0.00413566 0.13282254 -0.03530943 -0.22422485 -0.12036759 -0.04624929 0.048454057
-0.03624244 0.008200713 0.06772557 0.19062555 -0.06737204 -0.07558368 -0.0034810402 0.09721123
0.020944303 -0.039048627 -0.040060677 -0.0052461447 0.04997061 -0.02612829 0.04201609 0.02331893
-0.003365385 -0.01486902 -0.027690586 0.03960142 -0.091026634 0.07076889 -0.024385806 -0.0045403005
0.043117546 -0.043342367 -0.054119546 -0.043813903 0.067832075 0.026597828 0.013740345 -0.055806898
0.011629865 0.03078628 -0.022584783 0.030496454 0.04620472 0.011727367 -0.04869622 0.009582357
0.01615225 -0.03799707 -0.06386008 0.040270586 0.03009941 9.833955e-05 0.04632916 0.030730564
0.0656183 0.0026987912 0.05306731 -0.057736915 0.011646522 -0.0026806956 -0.09043428 -0.05875941
-0.033116497 0.07717016 0.10245702 0.15635483 -0.057259385 -0.0042984243 0.025059063 0.038341198
0.047250986 -0.12724204 0.16001298 0.29897085 0.1873081 -0.024776177 0.025788164 -0.0635538
0.07279969 -0.05109099 -0.14734146 0.0027665333 0.16323262 0.15121526 0.04054493 -0.034274608
0.031389106 0.01766564 0.06271722 -0.13312149 -0.0044341106 0.00973478 0.017106378 0.009978739
-0.043426644 -0.0025886428 -0.041323718 0.018891111 -0.0012580366 0.04632618 0.02660343 0.012267052
-0.06387 -0.0042055333 -0.012498097 0.04629769 -0.009839456 0.008620075 0.0084842695 -0.001665292
-0.03074585 0.010718183 0.008666792 0.0072802072 0.04004471 0.07818596 -0.051410973 0.04758318
-0.08413491 0.04666826 -0.046869688 0.11925816 -0.04347533 -0.101161495 -0.060697716 -0.08276495

cl1.bias f4 [8]
00000000: b12c d23d a8b8 81bd e14d d4bd 8060 e1bd
00000010: 3229 11be 1b32 f93d c20e ddbd 073c 8e3e
0.102624305 -0.063340485 -0.10366417 -0.11004734 -0.14175871 0.1216776 -0.107938305 0.27780172

cl2.weight f4 [7, 8, 1, 1]
00000000: e3ff cbbd f28f cdbd 867b fb3e 0774 0f3f
00000010: 8af2 ddbd f974 083d aaff 123f e128 bc3c
00000020: b59f a7bd 1f8a 5abc 24a2 103e 7726 50bd
00000030: f8a9 c5be 343d 913e f584 d43e cd9b 953e
00000040: 686d 14bd e4de 0cbc ded9 c6bb a756 203e
00000050: 03d5 bfbd c49e 873e 742b e1bc 1f81 c63d
00000060: 4e39 8c3e afd1 43bc 3314 6d3e f7ed 1b3d
00000070: feeb dabe 580b 75be 8caf 0a3f b3da e93d
00000080: 2d62 a53e 88f5 063e 8152 3bbd a315 1cbc
00000090: 93c2 a33c 935a c3bd b48f 10be 6b20 353e
000000a0: 302b c8bc c6f1 383f 4e3e 37bd 19b4 b23d
000000b0: 2df6 acbe 3acd 1a3b 4731 38be dcce 1dbd
000000c0: 77c2 c83e cb8c 203d 2371 763d ea59 de3b
000000d0: 75f6 1abe 6507 4d3e d6a2 0d3e 4de3 9abe
-0.09960916 -0.10037221 0.49117678 0.5603642 -0.10837276 0.03331468 0.5742136 0.022968711
-0.081847586 -0.013338595 0.14124352 -0.050817933 -0.38606238 0.28367007 0.41507688 0.2922043
-0.03623715 -0.008598063 -0.0060684523 0.15658055 -0.09366801 0.26488316 -0.02748654 0.09692597
0.2738747 -0.011951848 0.23152237 0.038068738 -0.42758173 -0.23930109 0.54174113 0.11418667
0.32301465 0.131796 -0.04573298 -0.009526643 0.019990241 -0.0953876 -0.14117318 0.17688148
-0.024434656 0.72243917 -0.044737153 0.08725757 -0.33781567 0.002362086 -0.17987548 -0.038527355
0.39210865 0.03919677 0.06016649 0.006785621 -0.15133078 0.20022352 0.13831648 -0.30251542

cl2.bias f4 [7]
00000000: c3f4 c53d 2d92 e4bc ddb9 23bf 4b5e 663e
00000010: ea31 34bd 5b94 763c b595 0f3e
0.09665825 -0.027901733 -0.6395548 0.22496907 -0.043992914 0.015050019 0.14021952

cl3.weight f4 [3, 7, 5, 5]
00000000: ce99 20bc 601b 8e3c 665d d0bc 794f 8fbc
00000010: 9c84 cabc f61b 26bc 0261 c33c c40b 29bc
00000020: cd8a d53c 782d 4cbd 9711 c73d f213 3f3c
00000030: 14b2 03bc 2110 873e eece 3d3d c002 49bd
00000040: 1e4c 0ebe 8f26 77be ebdd 063d 81f8 e0bd
00000050: b81c 3f3d 8037 c23d a15e 41bd efbf 7e3d
00000060: 7e13 efbb 3281 93bd 1f49 ef3a 8ec3 143d
00000070: a2d6 923b a507 22bd 5687 8cbc ec18 003e
00000080: f21c 5a3e 8ee0 533e de48 cb3d 807f 1cbc
00000090: e908 b53d 9b85 703e c20d f6bc 5545 243d
000000a0: 17f5 0fbd eeed 033e f00a 793d 0c3a 0fbe
000000b0: d3d4 a2bd 15e4 f0bd 0bf3 b83d ad17 0e3e
000000c0: 687c ffbc 288c 1a3d 5d3c 00bd b7e2 f93d
000000d0: 96a4 1e3e a0f4 4d3e 1d83 353d 6e4a d4bd
000000e0: 8f12 883e 6d54 f5be aa9c e7be ba1d 2a3e
000000f0: 5f4c 54bd 4e2f 893d 860a 13be 89f5 353e
00000100: 41b7 7dbd 29a4 593d 1a98 29bc 7d30 933b
00000110: fbb9 8a3e 3c5d cdbd 1b36 c8bc bff1 8d3d
00000120: 0199 6fbd 0388 bfbd 5d01 303d d4c2 563d
00000130: 578d 95bd d5dc 3bbd 5e91 da3c 6cd6 743d
00000140: 1b76 b0bb 99a5 8cbd b3fd b6bd e85a f9bd
00000150: 92dd 37bd 13d1 1dbc b35f 0fbd ea11 8bbe
00000160: 2dc4 81be e8db aebd b522 253d 9394 f83c
00000170: b8a0 37bd 2aa1 343d 17a0 203e 7790 4abd
00000180: e87a c13c 521d d9bb 429a 11bd 7080 f3ba
00000190: 6ef9 9ebc b77a bfbd 9868 08bd 3ac9 823b
000001a0: 7090 c13b 6564 223d f39f 933c 26bf 0c3e
000001b0: b50f c03c 4d50 a1bd 6525 9a3d b716 1bbb
000001c0: 4046 e53d abbb 133e b6f4 703c 0341 2b3c
000001d0: 2060 16be d64a 48bd 6a9b 373e 4e08 62bc
000001e0: 2e2b 96bc b674 73bd ac7e e23b e5cf 4b3b
000001f0: 44a7 34bd f748 a23c 73e4 14bc 3bce 123d
00000200: 6e50 793c 7c21 baba d2b1 92bd 91d2 1abd
00000210: fdfc ebba 835c c9bc 0066 293c e465 94bd
00000220: faf7 ce3d acea c63c 8ac7 17bd 442c fd3c
00000230: b6e4 c73d 5b36 f93e de82 8a3d d9ae 0fbd
00000240: 8a46 43bc b3d4 d4bd ad6d 483d 79a9 38bd
00000250: 707c 07bc 48ff 9dbc 2e13 ecbc ab88 a73d
00000260: 06d1 333d db54 c73c f1b3 4abd 1fc5 aa3c
00000270: a40b 953d 027b 903d f05a b8bd bcfa 053d
00000280: dad5 89bd f064 f03d fc23 de3d 0367 8e3d
00000290: 397d 053d 107f 58ba 6461 30be 0250 f1bd
000002a0: 87f5 fd3c 328f 96bc f670 ba3d 81f4 dcbd
000002b0: 66a9 4ebd b29b 163e 133f eb3b c077 89bb
000002c0: b65a b23c dd4d 40bd 6296 94bc 7b89 b73a
000002d0: 1c8d 2bbc c477 323c ee73 d6bc 5630 a13c
000002e0: a1cf 42bd 4c07 b63d 9042 b43b be02 56bd
000002f0: 84bc 753e aaba 243d 0f4b a9bc d397 e8bd
00000300: 9b2c 77be 661b f23c d38d 9cbd 9435 4a3d
00000310: d4fc ae3d e4f3 25bd eb93 3d3d 7880 9abc
00000320: d8fc 69bd a098 35bd 901d b3bd e345 7c3d
00000330: b60d 09bc cb80 6a3d dc7b a43c 75a9 eb3d
00000340: 9be7 403e 84fe 0e3e f576 d9bd 118a 26bd
00000350: d636 e6bd 85cf 6abe 32c4 b4bd debc 123d
00000360: 88d5 063e 00d4 333d 3de1 66be 0233 48bd
00000370: 8645 69bd 4fac ad3d 5e5b d83d f69c 39bd
00000380: 8bef 5d3d 8ff1 91bd 1c80 0a3e bc5f 373e
00000390: d63d 353e 81d0 153d 9938 dabd 5d96 823e
000003a0: 32af e8be 40a7 e8be 5c86 163e 29f6 18bd
000003b0: 72e9 f53c 247c debd 7b62 633e acd8 dcbc
000003c0: 1440 9d3d b552 ebbc fc43 2cbc 3663 753e
000003d0: dfaf debd 0583 72bc e7e9 a13d 4e0a 99bd
000003e0: 055f b2bd fc36 4d3d c87f db3c 29df 1fbd
000003f0: dc64 a43d 4a15 5bbd 3203 ae3c 2ed2 85bd
-0.009802295 0.017347038 -0.02543516 -0.01749395 -0.024721436 -0.010138502 0.023849968 -0.010317747
0.026067162 -0.04984805 0.09720152 0.01166247 -0.008038063 0.26379493 0.04633992 -0.04907489
-0.13896224 -0.24135803 0.03292648 -0.10984898 0.046658248 0.09483242 -0.047209386 0.06219476
-0.007296025 -0.072023764 0.0018256045 0.036319308 0.0044811526 -0.03955807 -0.017154377 0.12509507
0.21300104 0.2069113 0.09926008 -0.009551883 0.0883959 0.23488466 -0.030035857 0.040105183
-0.035145845 0.12883732 0.060801446 -0.13986987 -0.07950749 -0.11762253 0.09030732 0.13876219
-0.031187251 0.03773132 -0.031307567 0.122014455 0.15492472 0.20112848 0.044314492 -0.10365759
0.2657666 -0.47915974 -0.45236713 0.16612902 -0.051830646 0.06698476 -0.14359483 0.17769445
-0.061942343 0.05313507 -0.010351205 0.0044918642 0.27095017 -0.10027549 -0.024439862 0.06930875
-0.058495525 -0.09352114 0.04297005 0.052431896 -0.07302349 -0.0458649 0.026680645 0.0597748
-0.005385173 -0.06867523 -0.08935108 -0.12175542 -0.04488904 -0.009632367 -0.035003375 -0.27162105
-0.25344983 -0.085380375 0.040316302 0.030344283 -0.044831008 0.04409901 0.1568607 -0.04945418
0.023618177 -0.0066258097 -0.035547502 -0.0018577706 -0.019406047 -0.09349578 -0.033302873 0.003991273
0.005907111 0.039646525 0.018020606 0.13744792 0.02344499 -0.07876644 0.07526664 -0.0023664662
0.1119504 0.14427058 0.014706781 0.010452512 -0.14685106 -0.048899494 0.1793038 -0.013795925
-0.018331137 -0.059437476 0.006912073 0.0031099257 -0.04410483 0.019810183 -0.00908767 0.035841208
0.01521693 -0.0014200653 -0.07162823 -0.037798468 -0.0018004474 -0.024580246 0.01033926 -0.072459966
0.101058915 0.024281822 -0.03705553 0.030904897 0.0976042 0.48674282 0.06763242 -0.035078857
-0.011918673 -0.10392132 0.04893272 -0.045083497 -0.008269414 -0.019286767 -0.02881774 0.08180364
0.043900512 0.024332454 -0.04948801 0.020845948 0.07277611 0.07054712 -0.0900172 0.032709822
-0.06730242 0.11738002 0.10846707 0.06953242 0.032590125 -0.000825868 -0.17224652 -0.117828384
0.031000866 -0.018378828 0.09103577 -0.10788823 -0.05045452 0.1470783 0.00717915 -0.0041951835
0.02177177 -0.046949256 -0.018138114 0.0014002764 -0.010470655 0.010892812 -0.026178326 0.019676369
-0.04756129 0.088881105 0.005501099 -0.05224871 0.23997694 0.04021708 -0.020665674 -0.11357083
-0.2413811 0.02955408 -0.07644238 0.049367502 0.08544317 -0.040515795 0.046283644 -0.018860087
-0.057125896 -0.044335008 -0.08745873 0.061590087 -0.008365085 0.057251733 0.020078592 0.11506931
0.1883835 0.13964278 -0.106183924 -0.040659014 -0.11240928 -0.22930725 -0.08826484 0.03582465
0.13167393 0.04390335 -0.22546859 -0.04887677 -0.05695107 0.08480131 0.10564302 -0.045315705
0.054183524 -0.07126152 0.13525432 0.17907614 0.1769937 0.036575798 -0.106553264 0.25505343
-0.45446163 -0.45440102 0.14699692 -0.03734413 0.030018542 -0.10863522 0.22205536 -0.026958786
0.076782376 -0.028725961 -0.010514256 0.23963627 -0.108733885 -0.014801745 0.079059415 -0.074726686
-0.0870953 0.050101265 0.02679433 -0.03903118 0.0802705 -0.0534871 0.021241758 -0.06534229

cl3.bias f4 [3]
00000000: d8e2 ca3d d995 6fbd ce2b 57bc
0.09906548 -0.058492515 -0.013133002
