upscalers/srcnn/checkpoints/default-checkpoint.pt (torch, 20932 bytes, 6 tensors)

cl1.weight f4 [14, 3, 9, 9]
0	0xbc800c1c	-0.015630774
1	0x3d276a16	0.040872656
2	0xbcd396fe	-0.025828835
3	0xbd04f6f6	-0.032462083
4	0x3cefd19a	0.02927475
5	0x3b295b0e	0.0025841626
6	0x3d07493b	0.033028822
7	0xbc8560dc	-0.016281538
8	0x3ca28ef3	0.019843554
9	0x3d5d94b8	0.054096907
10	0xbdb776a6	-0.08958177
11	0x3c5fcbc2	0.0136594195
12	0x3cb9356d	0.022608483
13	0x3d5500b8	0.05200264
14	0x3d0e38cc	0.034722134
15	0xbce93b2f	-0.028470604
16	0x3c7f2ee7	0.015575147
17	0xbcc24d14	-0.023718394
18	0x3c9682f6	0.018372994
19	0xbdb143c4	-0.086555034
20	0x3c3211be	0.010868488
21	0x3e0621a6	0.13098773
22	0x3e19518e	0.14972517
23	0x3e041c2a	0.12901369
24	0x3da76a0f	0.08174526
25	0xbc918639	-0.017764198
26	0xbce67b5e	-0.028134998
27	0xbbbb5bce	-0.005717731
28	0x3d9f86e7	0.077894025
29	0x3dfb8d93	0.122828625
30	0x3d65a958	0.056069702
31	0x3e20ae04	0.15691382
32	0x3e33c122	0.17554143
33	0x3e06c5c9	0.13161387
34	0xbbc276e0	-0.005934581
35	0x3d789101	0.06068516
36	0xbda33af3	-0.07970228
37	0x3d9f3b68	0.07775003
38	0x3d5442da	0.051821567
39	0x3da3d1f3	0.07999029
40	0xbd6d1a11	-0.057886187
41	0x3d9f7c31	0.077873595
42	0x3c94dfa1	0.01817304
43	0xbc8480e5	-0.016174743
44	0x3c8fde9a	0.0175622
45	0xbd00ed2e	-0.031476192
46	0x3d0cff7b	0.034423333
47	0x3e165705	0.14681633
48	0x3e520dc5	0.20513065
49	0x3d075e52	0.033048935
50	0x3c927d61	0.017882051
51	0xbd8f1426	-0.06986265
52	0x3d231599	0.03981552
53	0x3b3f4ee8	0.002919132
54	0x3bcc68a5	0.0062380605
55	0xbd95686c	-0.072953075
56	0x3d7d3b4f	0.06182414
57	0x3e2818a3	0.16415648
58	0x3d21b1ce	0.03947621
59	0x3c9a0353	0.018800413
60	0xbcba3319	-0.022729443
61	0x3c9b240e	0.01893809
62	0xbcee4b09	-0.029088514
63	0x3cc11983	0.023571735
64	0xbd875972	-0.06608857
65	0xbd7c3d4b	-0.06158189
66	0xbb149f8b	-0.0022678103
67	0x3da3cf4e	0.079985246
68	0x3cc50219	0.024048852
69	0x3d759a6a	0.059961714
70	0xbd142a31	-0.03617305
71	0xbd6e43e8	-0.05817023
72	0x3d6bbfa5	0.057555813
73	0x3c71ec9b	0.014765884
74	0x3cc8e914	0.024525203
75	0xbd29e6db	-0.041479927
76	0x3d0c7461	0.034290675
77	0xbcbf1db3	-0.023329591
78	0xbcb2743a	-0.021783937
79	0xbd57a0d7	-0.052643623
80	0x3dd4b696	0.10386388
81	0xbd0c185d	-0.034202922
82	0x3c785dfe	0.015159128
83	0xbbba610e	-0.0056878394
84	0x3d811cef	0.06304347
85	0xbd2d8eac	-0.04237239
86	0x3d4f5265	0.050615687
87	0xbc5e83ec	-0.013581257
88	0x3c6c5204	0.014423851
89	0xbbb5f644	-0.005553039
90	0x3d5b3994	0.053521708
91	0x3d40d1c6	0.047075056
92	0x3cc0001f	0.023437558
93	0x3da47f1b	0.08032056
94	0xbc547cf5	-0.012969245
95	0xbd4af58f	-0.04955059
96	0xbccbb43c	-0.024866216
97	0x3ddc0d18	0.10744685
98	0x3c9c9f9a	0.019119073
99	0x3cd55ce4	0.02604527
100	0xbd4444fd	-0.047917355
101	0xbad20f1f	-0.0016026235
102	0x3d4383d8	0.047733158
103	0xbd8ce568	-0.06879693
104	0xbd0a4fdb	-0.033767562
105	0x3d024e8b	0.031813186
106	0x3d1bcab7	0.03803512
107	0x3d01feba	0.031737067
108	0x3ceb7f7b	0.02874731
109	0x3cfb7973	0.03069756
110	0x3c1564eb	0.009118299
111	0xbe58f9f7	-0.21189104
112	0xbe86d689	-0.26335552
113	0xbdb51b46	-0.088430926
114	0x3d7b425e	0.06134259
115	0x3aef3939	0.0018251307
116	0x3d1542e4	0.036440745
117	0xbd38efad	-0.045150448
118	0xbd185d8b	-0.037198585
119	0xbde5a8d5	-0.11213843
120	0xbe84e8c7	-0.25958845
121	0xbedc73f1	-0.43057206
122	0xbe398f94	-0.18121177
123	0xbdf89027	-0.1213687
124	0xbd9235fd	-0.07139204
125	0x3c07ef83	0.00829685
126	0x3cbae129	0.022812443
127	0x3d1369cb	0.035989564
128	0x3ae10ef0	0.0017170589
129	0xbd5a57d0	-0.0533064
130	0xbe7bbbd8	-0.24583375
131	0xbe5c416b	-0.2150933
132	0xbd76b297	-0.06022891
133	0x3d995b1b	0.0748808
134	0x3d19ff5d	0.03759705
135	0x3d29e814	0.041481093
136	0x3d11cfc7	0.035598543
137	0x3e184ef7	0.14873873
138	0x3de228dc	0.110429496
139	0xbdade8d3	-0.08491673
140	0xbc7d2167	-0.015449858
141	0x3e09f90e	0.13473913
142	0x3e172186	0.14758882
143	0x3d3881cc	0.04504566
144	0xbbc4a8b5	-0.0060015568
145	0x3d5eebd9	0.05442414
146	0x3d90f948	0.070787966
147	0x3dc3bd0d	0.09557543
148	0xbd470669	-0.048590098
149	0x3cc4607e	0.023971792
150	0x3d134c69	0.035961542
151	0x3da97a2c	0.082752556
152	0xbd112b5a	-0.035441734
153	0x3bae1ef8	0.0053137504
154	0x3c09a890	0.008402005
155	0x3cbff2d3	0.023431217
156	0x3d282b12	0.0410567
157	0xbd5b0de3	-0.05348004
158	0xbd0afd02	-0.033932693
159	0x3d4635ec	0.048391268
160	0xbd2ce3ba	-0.042209364
161	0x3cdb0ecc	0.026740454
162	0x3d00b76a	0.031424917
163	0x3ccc67a8	0.02495177
164	0xbc815135	-0.015785793
165	0x3ce4267a	0.027850378
166	0x3ba961d3	0.0051691323
167	0x3d9263b4	0.07147923
168	0x3d4ed3e6	0.05049505
169	0x3be14e31	0.006875776
170	0xbb8a3b1e	-0.004218473
171	0x3c8c4de0	0.017126977
172	0xbcf30481	-0.029665234
173	0xbc50707f	-0.012722134
174	0x3cf8951f	0.030344544
175	0xbd1bc102	-0.038025863
176	0xbc6c4abb	-0.014422114
177	0xbd237155	-0.039903004
178	0x3cdc87c2	0.026920203
179	0x3d753d27	0.059872773
180	0xbb287c45	-0.0025708836
181	0xbd6c15ec	-0.057638094
182	0x3d466aed	0.048441816
183	0x3d915ed3	0.070981644
184	0x3bbc842d	0.0057530613
185	0x3da3b0ec	0.079927295
186	0xbd2e27a9	-0.04251829
187	0x3c4a5f5b	0.012351836
188	0xbd774b10	-0.06037432
189	0x3c490cf3	0.012271154
190	0x3d6a7375	0.057239015
191	0x3dc2e651	0.095165856
192	0x3d87b491	0.06626237
193	0x3cdebc5f	0.027189432
194	0x3e3a149c	0.18171924
195	0x3e0b0487	0.13575946
196	0xbd4cd452	-0.050007172
197	0x3c6f1441	0.014592231
198	0x3d4908da	0.049080707
199	0x3d33528b	0.04377989
200	0x3def13a4	0.11673668
201	0x3da9c65f	0.082897894
202	0xbc00d9e1	-0.007864446
203	0x3ddbf158	0.10739392
204	0x3d80d353	0.06290307
205	0x3ce05a4e	0.02738681
206	0x3cddc921	0.027073445
207	0x3d0ed183	0.034867775
208	0xbce07523	-0.027399605
209	0x3dcb1cfa	0.09917636
210	0x3d7f5e43	0.062345754
211	0x3d78461b	0.060613733
212	0x3d040968	0.032235533
213	0x3d0ff964	0.035149947
214	0x3c095121	0.008381159
215	0x3c8c599e	0.017132577
216	0x3c8740e0	0.016510427
217	0xbdb852b3	-0.090001486
218	0x3c86ba48	0.016446248
219	0x3deb8467	0.11499863
220	0xbd1391d0	-0.03602773
221	0xbd0f1816	-0.03493508
222	0xbd88295e	-0.06648515
223	0x3ccf81f9	0.02533053
224	0xbceb06a0	-0.028689682
225	0xbcc04ecf	-0.023475079
226	0xb97035f5	-0.00022908284
227	0x3b0c5cdd	0.0021417656
228	0x3c7fc067	0.015609837
229	0x3c3a3412	0.011364954
230	0x3d85fa6e	0.06541906
231	0x3d7782e4	0.06042756
232	0x3cdf07d5	0.027225414
233	0x3cc27333	0.023736572
234	0x3c81488d	0.015781665
235	0x3c36bf3a	0.01115399
236	0x3cee7bed	0.029111827
237	0x3d2d2d76	0.042279683
238	0x3c9a6c68	0.01885052
239	0x3d8624e4	0.06550005
240	0x3b0714d9	0.0020611791
241	0x3a1b41eb	0.00059226033
242	0x3cd0ad7a	0.025473345
243	0x3c58e543	0.013238254
244	0x3c2663c3	0.010155621
245	0xbcf28068	-0.029602244
246	0x3d240ef8	0.040053338
247	0x3ccaefe0	0.024772584
248	0xbd3ed114	-0.04658611
249	0x3d615707	0.055014636
250	0xbd157fad	-0.036498714
251	0xbc0d066e	-0.00860749
252	0xbd94649e	-0.07245754
253	0x3d03a39a	0.032138444
254	0x3c50dea2	0.012748392
255	0x3d0ce3a7	0.034396794

cl1.bias f4 [14]
0	0x3e9aef34	0.30260623
1	0xbcd6fde2	-0.026244108
2	0xbd40db58	-0.047084183
3	0xbdf8502a	-0.12124665
4	0x3dcc6934	0.099810034
5	0xbdb842b9	-0.08997101
6	0x3d83bbde	0.06432317
7	0x3e032688	0.12807667
8	0xbbb283d3	-0.0054478436
9	0x3d21bf7e	0.03948926
10	0x3dca5cbc	0.09880969
11	0xbca6e884	-0.020374544
12	0x3d7bdf0f	0.061492022
13	0xbddd2c42	-0.10799457

cl2.weight f4 [13, 14, 1, 1]
0	0xbe0ef85e	-0.13961932
1	0x3e7bcf9e	0.24590918
2	0xbeb543ae	-0.35403198
3	0x3b5a7411	0.003333334
4	0x3d584a0f	0.052805003
5	0xbe162749	-0.14663424
6	0xbd91811b	-0.07104703
7	0xbd51426f	-0.051088747
8	0xbda05b61	-0.07829929
9	0x3dbcde7d	0.09222124
10	0x3e2d9cd7	0.16954361
11	0x3ecd4f64	0.40099633
12	0x3e02d39d	0.12776037
13	0xbe929b6b	-0.286342
14	0xbe55cfb8	-0.2088002
15	0x3dcbcb48	0.09950882
16	0x3e233cc2	0.15941146
17	0xbdcab7da	-0.09898348
18	0xbe5ab023	-0.21356253
19	0x3e2961eb	0.16541259
20	0xbdfa9f28	-0.12237388
21	0xbc771011	-0.015079514
22	0xbd8171e1	-0.06320549
23	0x3d464abb	0.048411112
24	0xbcc308ad	-0.023807848
25	0xbe599714	-0.21249038
26	0xbd47fd8c	-0.048825786
27	0xbe2fdd41	-0.17174245
28	0xbde070fb	-0.10959049
29	0xbd47ebb1	-0.048808757
30	0x3def14dc	0.116739005
31	0xbe5a066d	-0.21291514
32	0xbe164162	-0.14673379
33	0xbd169ca0	-0.036770463
34	0xbe174629	-0.14772858
35	0xbe71c2dd	-0.2360949
36	0x3d64cf25	0.05586161
37	0x3ddc20b7	0.10748427
38	0x3c8e77ac	0.017391048
39	0x3d902d0b	0.07039841
40	0xbae251f6	-0.0017266858
41	0xbdd02093	-0.10162463
42	0x3e0c9530	0.13728786
43	0xbe139462	-0.14412072
44	0x3e145523	0.14485602
45	0xbe52a4fb	-0.20570748
46	0x3e0fc472	0.14039782
47	0xbc566f22	-0.01308802
48	0x3e22fc2b	0.15916507
49	0xbc337d4e	-0.010955168
50	0x3d233522	0.039845593
51	0xbd99105e	-0.07473825
52	0xbb247d4f	-0.0025099104
53	0x3dd1f4ff	0.102518074
54	0x3e2377e5	0.15963705
55	0x3e2ccab8	0.16874206
56	0x3dd009d2	0.10158123
57	0x3e7d0452	0.2470868
58	0x3e33361e	0.17501113
59	0x3d169b53	0.036769222
60	0x3e70dadc	0.23520988
61	0x3e107977	0.14108835
62	0xbe924c2d	-0.28573743
63	0xbcba2fef	-0.022727935
64	0xbef2525e	-0.47328466
65	0x3ccc2b09	0.024922865
66	0x3e9a7d7d	0.30173865
67	0x3ec9abd9	0.39388922
68	0xbccf5fe1	-0.025314273
69	0xbe462d8c	-0.19353312
70	0x3c3bd5a0	0.011464506
71	0xbe913394	-0.28359663
72	0xbda34d53	-0.07973733
73	0xbf4357cb	-0.76305836
74	0xbc815ca6	-0.015791249
75	0xbecd6c3a	-0.40121633
76	0x3db7925d	0.089634635
77	0x3e8c563f	0.2740955
78	0x3e07aeb2	0.13250235
79	0xbe2b1689	-0.16707815
80	0x3c3a1d09	0.011359462
81	0x3f02cdc2	0.5109521
82	0xbe2c6e10	-0.1683886
83	0x3ec1006c	0.37695634
84	0xbe9d4e2e	-0.3072371
85	0xbe172161	-0.14758827
86	0x3dd6e7da	0.10493441
87	0xbeaa0615	-0.33207765
88	0x3d5126c9	0.05106238
89	0x3dd67efb	0.10473438
90	0x3dc77b64	0.09740332
91	0x3e15a067	0.1461197
92	0x3db84839	0.089981504
93	0x3dfdf12e	0.12399517
94	0x3c185f15	0.009300013
95	0x3e718c17	0.23588596
96	0x3e05578c	0.13021678
97	0x3dfb83c2	0.1228099
98	0xbdbb7b4b	-0.09154376
99	0x3dd75a92	0.10515322
100	0xbd908119	-0.070558734
101	0x3e5c3605	0.21504982
102	0xbd41c647	-0.047308233
103	0xbe3cae75	-0.18425925
104	0xbbcd9d7e	-0.006274878
105	0x3d89ad07	0.067224555
106	0xbc2c0024	-0.01049808
107	0xbe7356ad	-0.23763533
108	0x3e63fa34	0.22263414
109	0xbecfdf31	-0.4059997
110	0x3e456317	0.19276081
111	0xbd82184f	-0.06352293
112	0x3dc8afb7	0.0979914
113	0xbe445703	-0.19173817
114	0xbcfb88ac	-0.030704819
115	0x3e3c2767	0.18374406
116	0xbd7d626e	-0.061861448
117	0x3e09aea5	0.13445528
118	0xbe500ca4	-0.20317322
119	0xbe9a069e	-0.30083174
120	0xbe8e50fc	-0.2779616
121	0xbc592afd	-0.013254878
122	0x3d5c7191	0.053819243
123	0x3d740e51	0.059583966
124	0x3e11486c	0.14187783
125	0xbd9673fa	-0.073463395
126	0x3c1dba7f	0.009626984
127	0xbef824c0	-0.48465538
128	0xbde380e8	-0.11108571
129	0xbcac7238	-0.021050557
130	0x3c1af70c	0.009458315
131	0x3d8008b0	0.06251657
132	0xbe196166	-0.14978561
133	0xbde9e598	-0.11420745
134	0xbecf39e8	-0.40473866
135	0x3e0cc057	0.13745247
136	0x3e831a60	0.2560606
137	0x3c9f0a13	0.019413983
138	0x3e200ffb	0.15631096
139	0xbf15af8e	-0.58471
140	0xbe210d0d	-0.15727635
141	0x3ce8badc	0.028409414
142	0xbd909f27	-0.07061606
143	0xbbac248d	-0.0052533806
144	0xbd9894b3	-0.07450237
145	0x3d8aff12	0.06786932
146	0xbd02801a	-0.03186045
147	0xbe900f48	-0.2813666
148	0xbdab4b31	-0.08363951
149	0xbe35ebad	-0.17765684
150	0xbe331a9d	-0.17490621
151	0x3e388b35	0.18021853
152	0x3e52bbd8	0.20579469
153	0x3dd6af80	0.10482693
154	0x3eb01744	0.3439275
155	0xbd2f63ee	-0.04281991
156	0x3e4aaabe	0.19791695
157	0xbec63dc8	-0.3871901
158	0xbe93f83d	-0.28900328
159	0xbef5dc9d	-0.48019877
160	0x3d5f7513	0.05455501
161	0xbe358527	-0.17726575
162	0xbe84114e	-0.25794452
163	0x3ee522fe	0.4475326
164	0xbc2be305	-0.010491137
165	0xbf0078fa	-0.50184596
166	0xbe876e36	-0.26451272
167	0xbe46e56a	-0.19423452
168	0x3d99b3c0	0.07504988
169	0x3db6c69e	0.08924602
170	0x3df5c46d	0.12000356
171	0xbe4972ef	-0.1967275
172	0x3dfbd6c6	0.12296824
173	0xbdc9a776	-0.09846394
174	0xbdbd9b1c	-0.092581004
175	0xbe15a119	-0.14612235
176	0x3e555a8a	0.20835319
177	0x3bea752b	0.007155081
178	0xbd03364a	-0.032034196
179	0x3e4dc28d	0.20093746
180	0xbe65cb7e	-0.22440907
181	0xba998754	-0.0011713305

cl2.bias f4 [13]
0	0xbce68f80	-0.028144598
1	0xbe83978a	-0.25701553
2	0xbe18fdb5	-0.14940532
3	0xbd8759b9	-0.0660891
4	0xbe3b64da	-0.1830019
5	0xbc98bb67	-0.018644048
6	0x3d69bcb4	0.057064727
7	0xbd02abf1	-0.031902257
8	0xbe83f690	-0.2577405
9	0xbd194f88	-0.037429363
10	0xbdbba0ee	-0.09161554
11	0xbd481b45	-0.04885413
12	0xbe279cd5	-0.1636842

cl3.weight f4 [3, 13, 5, 5]
0	0x3d7d3097	0.061813917
1	0x3d05f2db	0.03270231
2	0x3cad1f83	0.02113319
3	0xbb788e6a	-0.0037926682
4	0x3dabeeae	0.08395134
5	0xbd1b537f	-0.037921425
6	0xbd7acbcb	-0.06122951
7	0xbcf5d599	-0.030009078
8	0xbdf5b3ab	-0.119971596
9	0xbd519e0e	-0.051176123
10	0x3d190602	0.037359245
11	0xbcc1fccd	-0.023680115
12	0x3dac9d58	0.084284484
13	0xbc726a88	-0.014795907
14	0x3d271173	0.040788125
15	0x3d23fca9	0.040035877
16	0xbd848214	-0.06470123
17	0x3cd9e85d	0.026600057
18	0x3cf848c3	0.030308133
19	0xbb003509	-0.0019562861
20	0xbcace117	-0.021103425
21	0x3c9ed919	0.01939063
22	0xbbeb04e3	-0.0071722134
23	0xbd101709	-0.035178218
24	0xba101468	-0.0005496205
25	0x3c716088	0.0147324875
26	0x3d8d01c5	0.06885103
27	0x3d4783e0	0.04870975
28	0x3cbf3e3e	0.02334511
29	0x3dce1116	0.10061853
30	0x3d05c7fd	0.032661427
31	0x3d0acf4f	0.03388911
32	0x3dd96535	0.10615007
33	0x3c7a9073	0.015293228
34	0x3aa8f4bd	0.001289032
35	0x3cba43d5	0.022737423
36	0x3bd2c436	0.0064320816
37	0x3d7031e7	0.05864134
38	0x3dd39b25	0.10332326
39	0x3d956744	0.07295087
40	0x3c89a682	0.01680303
41	0x3d5b5e16	0.053556524
42	0x3d4c3480	0.049854755
43	0xbbc93704	-0.0061405916
44	0x3c5252ee	0.012837155
45	0x3dabfc8e	0.0839778
46	0x3d832fa0	0.06405568
47	0x3d790d9f	0.060804006
48	0x3cfbbcfa	0.03072976
49	0x3dc40709	0.09571654
50	0xbc423ccf	-0.011855318
51	0xbcd6c225	-0.026215622
52	0x3c01e441	0.007927955
53	0xbcb742fc	-0.022370808
54	0x3ca10b8a	0.019658823
55	0xbbee0797	-0.0072640884
56	0xbb2e3d2a	-0.002658675
57	0x3b50e451	0.0031874368
58	0x3d61dee6	0.055144213
59	0x3bd22c88	0.006414
60	0xbd5d19a7	-0.053979542
61	0xbcbb9522	-0.02289826
62	0x3c9f6b63	0.019460386
63	0xbd560e92	-0.05225999
64	0x3d2afea3	0.041746747
65	0xbd191804	-0.03737642
66	0xbce1a014	-0.027542152
67	0xbc9c1b00	-0.019055843
68	0xbd17cfb1	-0.037063304
69	0xbc0e187d	-0.008672831
70	0xbc8438f1	-0.016140433
71	0x3d117c22	0.035518773
72	0x3cf8697e	0.03032374
73	0xbc9944df	-0.018709598
74	0x3c445a21	0.011984379
75	0x3c1a2c96	0.009410044
76	0xbd67a285	-0.056551475
77	0x3d2f6a70	0.042826116
78	0xbbfb37ad	-0.007666549
79	0xbd0ef195	-0.03489836
80	0xbcae6890	-0.021290094
81	0x3a29ab05	0.0006472322
82	0x3dfe81ab	0.12427076
83	0x3d16aac7	0.03678396
84	0x3c9f33b5	0.019433836
85	0x3d689c61	0.05678976
86	0x3ddafa02	0.106922165
87	0x3e8110ae	0.25208038
88	0x3d9ec0e8	0.07751638
89	0x3ce5b769	0.028041558
90	0x3aa226bc	0.0012371163
91	0x3dea9b1f	0.11455368
92	0x3e454e0e	0.19268057
93	0x3ca45932	0.020062063
94	0x3c9f2900	0.01942873
95	0xbbefeabd	-0.007321684
96	0xbd049286	-0.0323663
97	0x3d5d1bb4	0.053981498
98	0x3d62f719	0.055411432
99	0xbdad1095	-0.084504284
100	0x3b7ae648	0.003828423
101	0x3d1e7714	0.03868778
102	0x3cd49967	0.025952054
103	0x3cee586c	0.029094897
104	0xbc8104b1	-0.015749307
105	0x3d56275f	0.05228364
106	0x3b7b6b87	0.0038363652
107	0x3cbba4e9	0.022905784
108	0x3dbfd5ce	0.09366952
109	0xbd581ef2	-0.052763887
110	0x3c41c84c	0.01182754
111	0xbe12381a	-0.14279214
112	0xbe309755	-0.17245229
113	0x3d60d729	0.054892693
114	0xbd855185	-0.06509689
115	0x3d857e1a	0.065181926
116	0x3dcd04f6	0.10010712
117	0x3d68cc2e	0.056835346
118	0x3d7716ae	0.060324363
119	0xbc9cd1a7	-0.019142939
120	0xba704fa6	-0.0009167142
121	0xbc67c91e	-0.014147071
122	0xba3d0831	-0.00072109984
123	0xbaa92101	-0.0012903513
124	0xbb50a89e	-0.0031838785
125	0xba6e8da8	-0.0009100088
126	0xbd951237	-0.07278865
127	0x3c85501b	0.016273549
128	0xbd1f696f	-0.03891891
129	0x3d1902ee	0.03735631
130	0xbdd1c9fb	-0.10243603
131	0x3cbccd21	0.023047032
132	0x3db805f6	0.08985512
133	0xbcd86187	-0.026413692
134	0xbd69cac7	-0.05707815
135	0xbbe424e3	-0.006962405
136	0x3dccb725	0.099958695
137	0x3e642243	0.22278695
138	0x3d092e62	0.0334915
139	0xbd186f25	-0.03721537
140	0xbdc672fd	-0.09689901
141	0xbcfc8fb9	-0.030830251
142	0x3d5d02ce	0.053957753
143	0xbe028e95	-0.12749703
144	0xbcb909fd	-0.02258777
145	0x3cc0a3de	0.023515638
146	0xbdaf6460	-0.08564067
147	0x3bd97bdd	0.00663708
148	0xbcc36d43	-0.023855811
149	0xbba8029a	-0.0051272633
150	0x3d356061	0.044281367
151	0xbcede017	-0.029037518
152	0xbc0b2375	-0.00849234
153	0xbda5e8fa	-0.081010774
154	0x3cd2ac59	0.025716947
155	0x3d890fe9	0.06692488
156	0x3d433ba6	0.047664307
157	0x3bae6780	0.0053223968
158	0xbc87c0c7	-0.016571416
159	0xbd4f3da5	-0.0505959
160	0x3d73940b	0.059467357
161	0x3d24a7d7	0.040199127
162	0x3de4ccbe	0.11171864
163	0x3d7e981f	0.062156793
164	0xbd1a23eb	-0.03763191
165	0xbd8202cf	-0.06348192
166	0xbcd8d763	-0.026469892
167	0x3cd6e140	0.026230454
168	0x3cafa87c	0.021442644
169	0xbc8a96f3	-0.016917681
170	0xbccae0bf	-0.02476537
171	0xbd2bc830	-0.04193896
172	0xbc36e694	-0.011163373
173	0xbd0825f6	-0.033239327
174	0x3b12eb7a	0.0022418187
175	0x3d585066	0.05281105
176	0x3d92721d	0.07150672
177	0x3b83382f	0.0040045003
178	0x3d3b2a5b	0.04569469
179	0x3d96c12c	0.07361063
180	0x3d3c73f7	0.04600903
181	0x3d982233	0.07428398
182	0xbe076237	-0.1322106
183	0xbd80fa95	-0.06297795
184	0x3ca469d6	0.020069998
185	0xbd1603fb	-0.03662489
186	0xbdb474bb	-0.08811327
187	0xbe703ae4	-0.23459965
188	0xbdbed5d4	-0.09318128
189	0xbcabe8cb	-0.020985028
190	0x3da2d798	0.079512775
191	0xbdb290a1	-0.08718992
192	0xbd966b1e	-0.0734465
193	0x3d438866	0.0477375
194	0x3d11a78e	0.035560183
195	0x3c38460a	0.011247167
196	0x3d20675a	0.039161064
197	0xbaca786b	-0.0015447264
198	0x3d3ddbcf	0.046352204
199	0x3ce34ad4	0.027745642
200	0x3c0d1c9e	0.00861278
201	0x3be532ce	0.006994582
202	0xbc105b86	-0.008810883
203	0x3d183601	0.037160877
204	0x3a9a56c7	0.0011775129
205	0xbca8487f	-0.020542381
206	0x3cebc645	0.028781066
207	0x3ce8957c	0.028391592
208	0x3d132872	0.035927244
209	0x3d1abd8e	0.03777843
210	0x3cc51b7f	0.024060963
211	0x3b1d454f	0.002399761
212	0x3ce1f2d4	0.02758161
213	0x3d7c5645	0.06160571
214	0x3d2030cb	0.039109033
215	0xb9d2e5cd	-0.00040225536
216	0xbc556452	-0.0130244065
217	0x3b3f8919	0.0029226004
218	0x3d42be99	0.04754505
219	0x3b8e2c8b	0.004338806
220	0xbcfe3485	-0.031030903
221	0xbbc93974	-0.006140882
222	0x3d0b926b	0.034075182
223	0x3d4df395	0.050281126
224	0x3c876f15	0.01653246
225	0xbd1c26c8	-0.038122922
226	0xbd951d52	-0.07280983
227	0xbc6be4b7	-0.014397792
228	0x39234ff1	0.00015574672
229	0xbd832bb4	-0.0640482
230	0x3add6e92	0.0016893914
231	0xbda5417d	-0.080691315
232	0x3d380b88	0.044932872
233	0x3d3bf1f4	0.04588504
234	0x3cbebc9e	0.023283299
235	0x3d042ba4	0.03226818
236	0xbd0928b2	-0.033486076
237	0x3e20f1d8	0.15717256
238	0x3cea9744	0.028636582
239	0x3c2f07a4	0.010682974
240	0x3d91f654	0.071270615
241	0xbd58c2c0	-0.052920103
242	0x3b5f46fe	0.0034069414
243	0xbccf63ab	-0.02531608
244	0xbc219b5a	-0.009863699
245	0xbd33ba1d	-0.043878663
246	0x3c9df4fa	0.019281853
247	0x3c9debb8	0.019277439
248	0xbcc1914f	-0.023628859
249	0xbbb9af98	-0.0056666844
250	0xbc1f92ee	-0.009739621
251	0xbcc36a7e	-0.02385449
252	0x3c8df87f	0.017330406
253	0xbba9a9c9	-0.0051777107
254	0x3da331f4	0.07968512
255	0x3cb3b125	0.021935055

cl3.bias f4 [3]
0	0xbb8c7324	-0.004286187
1	0xbbb0305f	-0.00537686
2	0xbb959acd	-0.004565573
