upscalers/srcnn/checkpoints/same.pt (torch, 12650 bytes, 6 tensors)

cl1.weight f4 [8, 3, 9, 9]
0.016886657 -0.011720504 -0.037038434 -0.009000042 0.0067226156 0.0060692546 -0.020582318 0.036924493
-0.033263445 -0.042348348 0.031401526 -0.0076878793 0.00817411 0.1029457 0.08873941 -0.023159226
0.01458856 0.001119692 0.026372852 0.043290924 0.03815019 0.10862161 -0.11944329 -0.23027314
0.035637945 -0.032600276 0.027154177 -0.032288812 -0.05041519 0.07207385 0.05568887 -0.1875067
-0.2450272 -0.06061476 -0.026078286 -0.04721742 0.07053768 -0.006187461 0.026016256 0.03756627
0.10520621 0.10124192 0.06773557 -0.0069536413 0.010002037 -0.0037488972 -0.0021932167 -0.091759406
-0.07327582 0.10179636 0.25290957 0.08836758 0.08902929 0.035273403 0.015700968 -0.046815228
-0.042755835 0.022622544 -0.04954414 -0.0051250295 -0.0033450252 0.040755942 -0.050697964 -0.023752172
0.008630294 0.005986057 -0.086142786 -0.06710928 -0.025656048 -0.010819822 0.005061421 -0.040539924
0.0035556236 0.037878722 -0.023072843 0.03466914 -0.041654576 0.0005188559 0.034716897 -0.03106534
0.03583031 0.03332187 0.043560307 0.0094241155 -0.011300672 0.0101427175 -0.030268157 0.00036521297
-0.007168636 0.005994765 -0.031397913 -0.0020056868 -0.06544849 -0.08779495 0.033095393 -0.012885311
-0.04216745 0.03133704 -0.017084382 -0.012745643 -0.06200465 -0.095911406 0.07569646 0.1445843
0.017211623 -0.0074546696 0.007509778 -0.041714866 0.052870978 -0.0529229 0.06559493 0.31266916
0.34477186 0.173824 0.15709886 -0.03028611 0.07856071 0.008345871 -0.015961131 0.09166577
0.2821419 0.40807912 0.25197506 -0.0043787705 -0.058021713 0.096890315 -0.055824675 -0.019772854
0.016602885 0.0031171006 0.13144274 -0.03489351 -0.22367658 -0.121495076 -0.045915775 0.047764484
-0.0362642 0.008160715 0.06749634 0.19059101 -0.06658535 -0.07625633 -0.0049313894 0.097241335
0.021225646 -0.039062135 -0.040063053 -0.0049099964 0.049646325 -0.026769565 0.0405127 0.022631349
-0.0028327936 -0.015280216 -0.027261019 0.03958961 -0.09047904 0.07126011 -0.023862379 -0.004988386
0.042924337 -0.0422813 -0.055193666 -0.042467065 0.06791084 0.026717605 0.013826768 -0.056594085
0.0116209 0.030418836 -0.022550505 0.031192401 0.047113672 0.010916779 -0.049258735 0.009552978
0.016252855 -0.037249353 -0.064577445 0.040091574 0.02992511 -0.0004929585 0.046052348 0.031038098
0.065979585 0.0032125958 0.054290205 -0.057534266 0.011533283 -0.0029720906 -0.09129956 -0.05858722
-0.032410666 0.077089 0.10178563 0.15689579 -0.056653492 -0.0043502357 0.025732568 0.038001068
0.047297295 -0.12633674 0.15931933 0.2970748 0.18726988 -0.024909796 0.025342204 -0.06355316
0.0725792 -0.05149622 -0.14702924 0.0024978558 0.16277215 0.15184353 0.040014934 -0.03459971
0.031329963 0.01782874 0.06231802 -0.13328817 -0.00415007 0.010539492 0.018052569 0.0101264985
-0.043352216 -0.0020539146 -0.04133603 0.01818479 -0.001652255 0.045669887 0.026041543 0.012488101
-0.06345714 -0.004512992 -0.012670753 0.04680947 -0.0103103705 0.00870649 0.008703975 -0.0013112883
-0.030214587 0.010497979 0.0077072 0.0076974127 0.04045964 0.07904166 -0.05129292 0.048191745
-0.083744034 0.046636097 -0.04631222 0.12012866 -0.043742973 -0.10188878 -0.06098856 -0.083422706
00000000: e355 8a3c 5b07 40bc 9db5 17bd ea74 13bc
00000010: 6349 dc3b 99e0 c63b 409c a8bc 233e 173d
00000020: 403f 08bd 7675 2dbd e39e 003d 9bea fbbb
00000030: b4ec 053c 32d5 d23d 02bd b53d 6bb8 bdbc
00000040: db04 6f3c a1c2 923a e10b d83c d351 313d
00000050: 6043 1c3d 0275 de3d af9e f4bd b9cc 6bbe
00000060: 18f9 113d de87 05bd 7072 de3c 4641 04bd
00000070: 2980 4ebd 749b 933d 031a 643d c201 40be
00000080: 69e8 7abe 2f47 78bd 21a2 d5bc 0e67 41bd
00000090: 0f76 903d 2fc0 cabb 0b20 d53c 17df 193d
000000a0: 5a76 d73d ec57 cf3d f2b8 8a3d 5fdb e3bb
000000b0: 95df 233c 0fb0 75bb 12bc 0fbb 5bec bbbd
000000c0: a211 96bd 9c7a d03d 5d7d 813e 10fa b43d
000000d0: fd54 b63d d87a 103d 519f 803c 53c1 3fbd
000000e0: be20 2fbd ea52 b93c ccee 4abd ddef a7bb
000000f0: 3638 5bbb b4ef 263d aba8 4fbd ea93 c2bc
00000100: 1466 0d3c b026 c43b a16b b0bd 9770 89bd
00000110: a22c d2bc 9f45 31bc 47da a53b 310d 26bd
00000120: 7705 693b b826 1b3d 4203 bdbc 3a01 0e3d
00000130: fd9d 2abd d403 083a 4e33 0e3d bd7c febc
00000140: cec2 123d 837c 083d 4b6c 323d 9b67 1a3c
00000150: 7426 39bc a42d 263c edf4 f7bc 0e7a bf39
00000160: e1e6 eabb bc6f c43b 199b 00bd d771 03bb
00000170: dc09 86bd d7cd b3bd 098f 073d e91c 53bc
00000180: c7b7 2cbd 455b 003d 8cf4 8bbc 1ad3 50bc
00000190: 96f8 7dbd 336d c4bd bf06 9b3d e80d 143e
000001a0: 64ff 8c3c 4d46 f4bb 9514 f63b 35dd 2abd
000001b0: 3d8f 583d afc5 58bd a256 863d 2c16 a03e
000001c0: f085 b03e ebfe 313e 86de 203e 931a f8bc
000001d0: 70e4 a03d 1fbd 083c ebc0 82bc 43bb bb3d
000001e0: e774 903e bfef d03e e002 813e ca7b 8fbb
000001f0: 2da8 6dbd 6e6e c63d 6aa8 64bd aefa a1bc
00000200: c602 883c 4548 4c3b ed98 063e 7fec 0ebd
00000210: 790b 65be 69d2 f8bd 2e12 3cbd b1a4 433d
00000220: c589 14bd 85b4 053c 853b 8a3d 4a2a 433e
00000230: e65d 88bd 472c 9cbd 7e97 a1bb 7726 c73d
00000240: 68e1 ad3c 9eff 1fbd 2819 24bd 09e4 a0bb
00000250: f259 4b3d d94b dbbc a5f0 253d 6165 b93c
00000260: 64a6 39bb df59 7abc 8052 dfbc b728 223d
00000270: 134d b9bd d2f0 913d 097b c3bc 9d75 a3bb
00000280: 6ed1 2f3d 282f 2dbd c112 62bd f2f1 2dbd
00000290: d714 8b3d e1de da3c ab89 623c 33cf 67bd
000002a0: 9665 3e3c ec30 f93c d6bb b8bc 3587 ff3c
000002b0: 44fa 403d 4adc 323c 87c3 49bd 1884 1c3c
000002c0: b524 853c c792 18bd 2e41 84bd 1037 243d
000002d0: 8125 f53c e339 01ba 63a1 3c3d 9c43 fe3c
000002e0: 4e20 873d 6a8a 523b 685f 5e3d 0da9 6bbd
000002f0: 18f6 3c3c 68c7 42bb 44fb babd 27f9 6fbd
00000300: 0cc1 04bd d6e0 9d3d fc74 d03d 4aa9 203e
00000310: 7e0d 68bd 6c8c 8ebb 1bcd d23c 02a7 1b3d
00000320: cfba 413d 6b5e 01be 9b24 233e 301a 983e
00000330: adc3 3f3e a10f ccbc 749a cf3c 2928 82bd
00000340: 67a4 943d b3ed 52bd d58e 16be 11b3 233b
00000350: bead 263e df7c 1b3e b3e6 233d 6db8 0dbd
00000360: d953 003d 940d 923c 2e41 7f3d b27c 08be
00000370: 4ffd 87bb d5ad 2c3c fbe2 933c 9de9 253c
00000380: 1892 31bd f89a 06bb f84f 29bd 45f8 943c
00000390: 7a90 d8ba 5910 3b3d 1355 d53c e49a 4c3c
000003a0: d1f5 81bd b9e1 93bb fd98 4fbc 49bb 3f3d
000003b0: d4ec 28bc aaa5 0e3c 1e9b 0e3c 89df abba
000003c0: 9584 f7bc b7ff 2b3c ae8c fc3b 943a fc3b
000003d0: 02b9 253d 98e0 a13d 8618 52bd b564 453d
000003e0: fe81 abbd 7e05 3f3d e2b1 3dbd 0406 f63d
000003f0: d52b 33bd 11ab d0bd 24cf 79bd 86d9 aabd

cl1.bias f4 [8]
0.101562865 -0.06321927 -0.10288227 -0.11066282 -0.14371817 0.12134966 -0.10837845 0.27753264
00000000: 3100 d03d 1b79 81bd f1b3 d2bd 30a3 e2bd
00000010: db2a 13be 2c86 f83d 85f5 ddbd c218 8e3e

cl2.weight f4 [7, 8, 1, 1]
-0.09912164 -0.10110567 0.49129578 0.5596667 -0.10914135 0.032792017 0.57096475 0.022820808
-0.0832755 -0.013537273 0.14202623 -0.050867934 -0.38422725 0.28302947 0.4124875 0.2915894
-0.03531235 -0.008960127 -0.0059198705 0.15738055 -0.095359355 0.2642721 -0.024754843 0.09633717
0.27296692 -0.012742157 0.23339434 0.03820287 -0.425303 -0.23929398 0.53964293 0.113568105
0.32230568 0.13143095 -0.04433632 -0.007499782 0.021010622 -0.095306545 -0.13817911 0.17654799
-0.024073934 0.72107464 -0.04306155 0.08698201 -0.34120786 0.0017983429 -0.17910007 -0.03899152
0.3913575 0.03792468 0.0613672 0.00712957 -0.15050569 0.19956623 0.1390689 -0.3023746
00000000: 4900 cbbd 7d10 cfbd 1f8b fb3e 5146 0f3f
00000010: 8085 dfbd ec50 063d bf2a 123f b4f2 ba3c
00000020: 588c aabd 70cb 5dbc 536f 113e e55a 50bd
00000030: 6fb9 c4be 3de9 903e 9031 d33e 354b 953e
00000040: afa3 10bd 7fcd 12bc 79fb c1bb 5e28 213e
00000050: c44b c3bd ac4e 873e abca cabc 6c4c c53d
00000060: 52c2 8b3e 7bc4 50bc edfe 6e3e 9d7a 1c3d
00000070: 51c1 d9be 7b09 75be 0a26 0a3f 6596 e83d
00000080: 4005 a53e d695 063e 009a 35bd bbc0 f5bb
00000090: 781e ac3c 1430 c3bd d37e 0dbe ffc8 343e
000000a0: b336 c5bc 5998 383f 4f61 30bd a023 b23d
000000b0: ccb2 aebe 60b6 eb3a 0266 37be 92b5 1fbd
000000c0: 0360 c83e e956 1b3d 2c5c 7b3d 2b9f e93b
000000d0: 2a1e 1abe 175b 4c3e 1468 0e3e d8d0 9abe

cl2.bias f4 [7]
0.09574585 -0.027058803 -0.64001924 0.22554697 -0.044200234 0.015160207 0.14070056
00000000: 6616 c43d 6caa ddbc 4dd8 23bf c9f5 663e
00000010: 4e0b 35bd 8462 783c cf13 103e

cl3.weight f4 [3, 7, 5, 5]
-0.009642129 0.01795909 -0.025094237 -0.017591264 -0.025170004 -0.010141266 0.023955919 -0.011210146
0.02628197 -0.049308043 0.09643608 0.010814995 -0.009044182 0.26309237 0.04588326 -0.04951703
-0.13695776 -0.23944026 0.032875318 -0.10990514 0.046529394 0.0965025 -0.04840839 0.061986264
-0.007347323 -0.07236532 0.0026201329 0.036357466 0.005915744 -0.03963228 -0.017114628 0.12588137
0.21250477 0.20740005 0.09880064 -0.009656531 0.08923448 0.23403865 -0.030270346 0.039086755
-0.035654083 0.12911884 0.059515726 -0.13942409 -0.08031936 -0.11846422 0.09158307 0.1392407
-0.030515157 0.037390828 -0.031221827 0.123890325 0.15344687 0.19928649 0.047320135 -0.103348814
0.2629609 -0.47772047 -0.45523205 0.16671227 -0.05252835 0.06747209 -0.14197524 0.17940938
-0.06205091 0.0531964 -0.010619324 0.0021736799 0.26966044 -0.10071808 -0.023855407 0.068671934
-0.05865287 -0.09241471 0.041785426 0.05235429 -0.07409373 -0.045959942 0.02581373 0.06004764
-0.005441757 -0.069828525 -0.088515125 -0.12219552 -0.04517062 -0.007916656 -0.034732383 -0.26930094
-0.25278407 -0.08408384 0.04049892 0.028619213 -0.045498125 0.043173578 0.15721008 -0.04925829
0.022506898 -0.0054580797 -0.03571883 -0.0018707262 -0.01988643 -0.093707405 -0.032684293 0.003633513
0.0044012754 0.041009594 0.01862271 0.13838811 0.024317944 -0.07895911 0.074560076 -0.0029970638
0.11161625 0.14437547 0.014200144 0.009833443 -0.14659813 -0.048633896 0.17915268 -0.01425334
-0.018468577 -0.059396036 0.0068825334 0.0039703995 -0.043385107 0.019701792 -0.008956297 0.035586026
0.015352555 -0.0011859095 -0.07165639 -0.037923902 -0.00195168 -0.025097696 0.010133138 -0.07182223
0.10090561 0.025586003 -0.03648322 0.03150375 0.0972091 0.4846813 0.066973895 -0.03567777
-0.011644225 -0.1038792 0.04804325 -0.045004405 -0.008243778 -0.019307446 -0.028376266 0.08134576
0.04370168 0.024628818 -0.049534682 0.021253211 0.07224221 0.07072864 -0.08909524 0.03284336
-0.067032546 0.11703961 0.10866338 0.07033498 0.032842085 -0.0010748395 -0.17236833 -0.11840095
0.030128628 -0.018700609 0.090942875 -0.10773285 -0.050154984 0.14709389 0.008296197 -0.0043231
0.022616467 -0.04722857 -0.018176097 0.0012420939 -0.010040677 0.011552798 -0.026760954 0.019567402
-0.047079638 0.08818064 0.004560349 -0.053843 0.23900263 0.040071297 -0.021525888 -0.11250813
-0.24075532 0.029956672 -0.07553918 0.04894044 0.08754672 -0.04228575 0.04567338 -0.018377881
-0.057385724 -0.04460468 -0.08715968 0.061850093 -0.006900143 0.056983307 0.019670412 0.11556925
0.18828459 0.13966867 -0.105981864 -0.04039555 -0.11102895 -0.22820926 -0.08771662 0.035219844
0.13044709 0.042878855 -0.22607808 -0.050215427 -0.05723257 0.084327206 0.10637133 -0.04524103
0.053650323 -0.07129669 0.137042 0.17841686 0.1746849 0.039501775 -0.10605153 0.2522197
-0.45254928 -0.456146 0.14621115 -0.037737556 0.030493177 -0.10752287 0.22450128 -0.026968516
0.076795 -0.028706536 -0.012479957 0.23931757 -0.10870725 -0.013851852 0.0780189 -0.07411389
-0.08630849 0.0489286 0.026846003 -0.03970651 0.07976336 -0.053752027 0.02016367 -0.06508824
00000000: 05fa 1dbc f11e 933c 6e92 cdbc 8e1b 90bc
00000010: 5331 cebc 8d27 26bc 343f c43c c3aa 37bc
00000020: 494d d73c 3bf7 49bd 4880 c53d 6031 313c
00000030: 0c2e 14bc 0bb4 863e 16f0 3b3d 5fd2 4abd
00000040: a83e 0cbe d42f 75be 45a8 063d f215 e1bd
00000050: 9b95 3e3d 1aa3 c53d e047 46bd 4fe5 7d3d
00000060: d0c1 f0bb 4534 94bd 89b6 2b3b 91eb 143d
00000070: dcd8 c13b 7555 22bd fa33 8cbc 0ce7 003e
00000080: da9a 593e ae60 543e fd57 ca3d 6d36 1ebc
00000090: 91c0 b63d d4a7 6f3e 84f9 f7bc 6f19 203d
000000a0: 040a 12bd bb37 043e c3c6 733d 30c5 0ebe
000000b0: 7a7e a4bd 5e9d f2bd e88f bb3d 1d95 0e3e
000000c0: ecfa f9bc 2027 193d ebc4 ffbc 36ba fd3d
000000d0: 2d21 1d3e c211 4c3e c2d2 413d 8ba8 d3bd
000000e0: d0a2 863e c797 f4be 2d14 e9be 9fb6 2a3e
000000f0: f827 57bd cf2e 8a3d f561 11be 18b7 373e
00000100: 1829 7ebd 78e4 593d acfc 2dbc 4c74 0e3b
00000110: ef10 8a3e 4845 cebd 6a6c c3bc dfa3 8c3d
00000120: fe3d 70bd ec43 bdbd 3227 2b3d 7471 563d
00000130: 74be 97bd 7e40 3cbd 5177 d33c 84f4 753d
00000140: c450 b2bb 4202 8fbd 6b47 b5bd a541 fabd
00000150: d404 39bd ddb4 01bc 8b43 0ebd d0e1 89be
00000160: ea6c 81be 2634 acbd 32e2 253d d772 ea3c
00000170: 3e5c 3abd c7d6 303d aefb 203e 10c3 49bd
00000180: 6360 b83c b1d9 b2bb e84d 12bd 2833 f5ba
00000190: dee8 a2bc abe9 bfbd f7df 05bd 3c20 6e3b
000001a0: 9338 903b adf9 273d a78e 983c 9db5 0d3e
000001b0: 6d36 c73c 50b5 a1bd f4b2 983d 636a 44bb
000001c0: 0f97 e43d 2ad7 133e b9a7 683c 731c 213c
000001d0: d21d 16be 5634 47bd cd73 373e d786 69bc
000001e0: 6a4b 97bc 4249 73bd e086 e13b 201a 823b
000001f0: 95b4 31bd a765 a13c 6fbd 12bc a7c2 113d
00000200: 4889 7b3c 8570 9bba 96c0 92bd 1856 1bbd
00000210: 84cf ffba af99 cdbc 7605 263c 8917 93bd
00000220: 9aa7 ce3d bd99 d13c 6e6f 15bd 130a 013d
00000230: 9115 c73d 2628 f83e 9c29 893d da22 12bd
00000240: 6bc7 3ebc 9ebe d4bd 00c9 443d 8a56 38bd
00000250: e910 07bc a62a 9ebc 5875 e8bc 9b98 a63d
00000260: 8800 333d 60c2 c93c e1e4 4abd 371b ae3c
00000270: b9f3 933d 2dda 903d 9177 b6bd c286 063d
00000280: 5c48 89bd 77b2 ef3d e88a de3d c90b 903d
00000290: 6c85 063d a1e1 8cba 5381 30be 337c f2bd
000002a0: 50d0 f63c 0532 99bc 4240 ba3d 0aa3 dcbd
000002b0: 506f 4dbd c89f 163e c6ec 073c cba8 8dbb
000002c0: 2b46 b93c bf72 41bd 0ae6 94bc c1cd a23a
000002d0: a781 24bc f247 3d3c ca39 dbbc d14b a03c
000002e0: 94d6 40bd 0d98 b43d fb6e 953b 7a8a 5cbd
000002f0: 1bbd 743e cd21 243d 0f57 b0bc aa6a e6bd
00000300: 9088 76be b267 f53c 49b4 9abd c575 483d
00000310: b24b b33d d333 2dbd 0314 3b3d 368d 96bc
00000320: 4b0d 6bbd 66b3 36bd c680 b2bd 8656 7d3d
00000330: 981a e2bb 5467 693d d823 a13c 92af ec3d
00000340: adcd 403e 4e05 0f3e 050d d9bd ce75 25bd
00000350: 2563 e3bd b0af 69be c5a4 b3bd af42 103d
00000360: ec93 053e bda1 2f3d 0381 67be b1ae 4dbd
00000370: b36c 6abd beb3 ac3d 36d9 d93d a94e 39bd
00000380: 71c0 5b3d 0004 92bd bd54 0c3e e9b2 363e
00000390: 99e0 323e 9dcc 213d 8b31 d9bd f122 813e
000003a0: 8ab4 e7be f88b e9be 60b8 153e b292 1abd
000003b0: d4cc f93c f334 dcbd aae3 653e 14ed dcbc
000003c0: b246 9d3d f829 ebbc bc78 4cbc aa0f 753e
000003d0: e8a1 debd e1f2 62bc 5fc8 9f3d 06c9 97bd
000003e0: 81c2 b0bd 5b69 483d 26ec db3c 4ba3 22bd
000003f0: f95a a33d 162b 5cbd 482e a53c fc4c 85bd

cl3.bias f4 [3]
0.09876847 -0.057700068 -0.012938084
00000000: 2047 ca3d e856 6cbd 42fa 53bc
